…
I0306 15:53:12.071297   531 net.cpp:323] The NetState phase (0) differed from the phase (1) specified by a rule in layer loss3/top-1
I0306 15:53:12.072140   531 net.cpp:52] Initializing net from parameters:
state {
phase: TRAIN
}
layer {
name: "train-data"
type: "Data"
top: "data"
top: "label"
include {
phase: TRAIN
}
transform_param {
mirror: true
crop_size: 224
mean_file: "/opt/DIGITS/digits/jobs/20200306-152817-4bfc/mean.binaryproto"
}
data_param {
source: "/opt/DIGITS/digits/jobs/20200306-152817-4bfc/train_db"
batch_size: 32
backend: LMDB
}
}
layer {
name: "conv1/7x7_s2"
type: "Convolution"
bottom: "data"
top: "conv1/7x7_s2"
param {
lr_mult: 1
decay_mult: 1
}
param {
lr_mult: 2
decay_mult: 0
}
convolution_param {
num_output: 64
pad: 3
kernel_size: 7
stride: 2
weight_filler {
type: "xavier"
std: 0.1
}
bias_filler {
type: "constant"
value: 0.2
}
}
}
layer {
name: "conv1/relu_7x7"
type: "ReLU"
bottom: "conv1/7x7_s2"
top: "conv1/7x7_s2"
}
layer {
name: "pool1/3x3_s2"
type: "Pooling"
bottom: "conv1/7x7_s2"
top: "pool1/3x3_s2"
pooling_param {
pool: MAX
kernel_size: 3
stride: 2
}
}
layer {
name: "pool1/norm1"
type: "LRN"
bottom: "pool1/3x3_s2"
top: "pool1/norm1"
lrn_param {
local_size: 5
alpha: 0.0001
beta: 0.75
}
}
layer {
name: "conv2/3x3_reduce"
type: "Convolution"
bottom: "pool1/norm1"
top: "conv2/3x3_reduce"
param {
lr_mult: 1
decay_mult: 1
}
param {
lr_mult: 2
decay_mult: 0
}
convolution_param {
num_output: 64
kernel_size: 1
weight_filler {
type: "xavier"
std: 0.1
}
bias_filler {
type: "constant"
value: 0.2
}
}
}
layer {
name: "conv2/relu_3x3_reduce"
type: "ReLU"
bottom: "conv2/3x3_reduce"
top: "conv2/3x3_reduce"
}
layer {
name: "conv2/3x3"
type: "Convolution"
bottom: "conv2/3x3_reduce"
top: "conv2/3x3"
param {
lr_mult: 1
decay_mult: 1
}
param {
lr_mult: 2
decay_mult: 0
}
convolution_param {
num_output: 192
pad: 1
kernel_size: 3
weight_filler {
type: "xavier"
std: 0.03
}
bias_filler {
type: "constant"
value: 0.2
}
}
}
layer {
name: "conv2/relu_3x3"
type: "ReLU"
bottom: "conv2/3x3"
top: "conv2/3x3"
}
layer {
name: "conv2/norm2"
type: "LRN"
bottom: "conv2/3x3"
top: "conv2/norm2"
lrn_param {
local_size: 5
alpha: 0.0001
beta: 0.75
}
}
layer {
name: "pool2/3x3_s2"
type: "Pooling"
bottom: "conv2/norm2"
top: "pool2/3x3_s2"
pooling_param {
pool: MAX
kernel_size: 3
stride: 2
}
}
layer {
name: "inception_3a/1x1"
type: "Convolution"
bottom: "pool2/3x3_s2"
top: "inception_3a/1x1"
param {
lr_mult: 1
decay_mult: 1
}
param {
lr_mult: 2
decay_mult: 0
}
convolution_param {
num_output: 64
kernel_size: 1
weight_filler {
type: "xavier"
std: 0.03
}
bias_filler {
type: "constant"
value: 0.2
}
}
}
layer {
name: "inception_3a/relu_1x1"
type: "ReLU"
bottom: "inception_3a/1x1"
top: "inception_3a/1x1"
}
layer {
name: "inception_3a/3x3_reduce"
type: "Convolution"
bottom: "pool2/3x3_s2"
top: "inception_3a/3x3_reduce"
param {
lr_mult: 1
decay_mult: 1
}
param {
lr_mult: 2
decay_mult: 0
}
convolution_param {
num_output: 96
kernel_size: 1
weight_filler {
type: "xavier"
std: 0.09
}
bias_filler {
type: "constant"
value: 0.2
}
}
}
layer {
name: "inception_3a/relu_3x3_reduce"
type: "ReLU"
bottom: "inception_3a/3x3_reduce"
top: "inception_3a/3x3_reduce"
}
layer {
name: "inception_3a/3x3"
type: "Convolution"
bottom: "inception_3a/3x3_reduce"
top: "inception_3a/3x3"
param {
lr_mult: 1
decay_mult: 1
}
param {
lr_mult: 2
decay_mult: 0
}
convolution_param {
num_output: 128
pad: 1
kernel_size: 3
weight_filler {
type: "xavier"
std: 0.03
}
bias_filler {
type: "constant"
value: 0.2
}
}
}
layer {
name: "inception_3a/relu_3x3"
type: "ReLU"
bottom: "inception_3a/3x3"
top: "inception_3a/3x3"
}
layer {
name: "inception_3a/5x5_reduce"
type: "Convolution"
bottom: "pool2/3x3_s2"
top: "inception_3a/5x5_reduce"
param {
lr_mult: 1
decay_mult: 1
}
param {
lr_mult: 2
decay_mult: 0
}
convolution_param {
num_output: 16
kernel_size: 1
weight_filler {
type: "xavier"
std: 0.2
}
bias_filler {
type: "constant"
value: 0.2
}
}
}
layer {
name: "inception_3a/relu_5x5_reduce"
type: "ReLU"
bottom: "inception_3a/5x5_reduce"
top: "inception_3a/5x5_reduce"
}
layer {
name: "inception_3a/5x5"
type: "Convolution"
bottom: "inception_3a/5x5_reduce"
top: "inception_3a/5x5"
param {
lr_mult: 1
decay_mult: 1
}
param {
lr_mult: 2
decay_mult: 0
}
convolution_param {
num_output: 32
pad: 2
kernel_size: 5
weight_filler {
type: "xavier"
std: 0.03
}
bias_filler {
type: "constant"
value: 0.2
}
}
}
layer {
name: "inception_3a/relu_5x5"
type: "ReLU"
bottom: "inception_3a/5x5"
top: "inception_3a/5x5"
}
layer {
name: "inception_3a/pool"
type: "Pooling"
bottom: "pool2/3x3_s2"
top: "inception_3a/pool"
pooling_param {
pool: MAX
kernel_size: 3
stride: 1
pad: 1
}
}
layer {
name: "inception_3a/pool_proj"
type: "Convolution"
bottom: "inception_3a/pool"
top: "inception_3a/pool_proj"
param {
lr_mult: 1
decay_mult: 1
}
param {
lr_mult: 2
decay_mult: 0
}
convolution_param {
num_output: 32
kernel_size: 1
weight_filler {
type: "xavier"
std: 0.1
}
bias_filler {
type: "constant"
value: 0.2
}
}
}
layer {
name: "inception_3a/relu_pool_proj"
type: "ReLU"
bottom: "inception_3a/pool_proj"
top: "inception_3a/pool_proj"
}
layer {
name: "inception_3a/output"
type: "Concat"
bottom: "inception_3a/1x1"
bottom: "inception_3a/3x3"
bottom: "inception_3a/5x5"
bottom: "inception_3a/pool_proj"
top: "inception_3a/output"
}
layer {
name: "inception_3b/1x1"
type: "Convolution"
bottom: "inception_3a/output"
top: "inception_3b/1x1"
param {
lr_mult: 1
decay_mult: 1
}
param {
lr_mult: 2
decay_mult: 0
}
convolution_param {
num_output: 128
kernel_size: 1
weight_filler {
type: "xavier"
std: 0.03
}
bias_filler {
type: "constant"
value: 0.2
}
}
}
layer {
name: "inception_3b/relu_1x1"
type: "ReLU"
bottom: "inception_3b/1x1"
top: "inception_3b/1x1"
}
layer {
name: "inception_3b/3x3_reduce"
type: "Convolution"
bottom: "inception_3a/output"
top: "inception_3b/3x3_reduce"
param {
lr_mult: 1
decay_mult: 1
}
param {
lr_mult: 2
decay_mult: 0
}
convolution_param {
num_output: 128
kernel_size: 1
weight_filler {
type: "xavier"
std: 0.09
}
bias_filler {
type: "constant"
value: 0.2
}
}
}
layer {
name: "inception_3b/relu_3x3_reduce"
type: "ReLU"
bottom: "inception_3b/3x3_reduce"
top: "inception_3b/3x3_reduce"
}
layer {
name: "inception_3b/3x3"
type: "Convolution"
bottom: "inception_3b/3x3_reduce"
top: "inception_3b/3x3"
param {
lr_mult: 1
decay_mult: 1
}
param {
lr_mult: 2
decay_mult: 0
}
convolution_param {
num_output: 192
pad: 1
kernel_size: 3
weight_filler {
type: "xavier"
std: 0.03
}
bias_filler {
type: "constant"
value: 0.2
}
}
}
layer {
name: "inception_3b/relu_3x3"
type: "ReLU"
bottom: "inception_3b/3x3"
top: "inception_3b/3x3"
}
layer {
name: "inception_3b/5x5_reduce"
type: "Convolution"
bottom: "inception_3a/output"
top: "inception_3b/5x5_reduce"
param {
lr_mult: 1
decay_mult: 1
}
param {
lr_mult: 2
decay_mult: 0
}
convolution_param {
num_output: 32
kernel_size: 1
weight_filler {
type: "xavier"
std: 0.2
}
bias_filler {
type: "constant"
value: 0.2
}
}
}
layer {
name: "inception_3b/relu_5x5_reduce"
type: "ReLU"
bottom: "inception_3b/5x5_reduce"
top: "inception_3b/5x5_reduce"
}
layer {
name: "inception_3b/5x5"
type: "Convolution"
bottom: "inception_3b/5x5_reduce"
top: "inception_3b/5x5"
param {
lr_mult: 1
decay_mult: 1
}
param {
lr_mult: 2
decay_mult: 0
}
convolution_param {
num_output: 96
pad: 2
kernel_size: 5
weight_filler {
type: "xavier"
std: 0.03
}
bias_filler {
type: "constant"
value: 0.2
}
}
}
layer {
name: "inception_3b/relu_5x5"
type: "ReLU"
bottom: "inception_3b/5x5"
top: "inception_3b/5x5"
}
layer {
name: "inception_3b/pool"
type: "Pooling"
bottom: "inception_3a/output"
top: "inception_3b/pool"
pooling_param {
pool: MAX
kernel_size: 3
stride: 1
pad: 1
}
}
layer {
name: "inception_3b/pool_proj"
type: "Convolution"
bottom: "inception_3b/pool"
top: "inception_3b/pool_proj"
param {
lr_mult: 1
decay_mult: 1
}
param {
lr_mult: 2
decay_mult: 0
}
convolution_param {
num_output: 64
kernel_size: 1
weight_filler {
type: "xavier"
std: 0.1
}
bias_filler {
type: "constant"
value: 0.2
}
}
}
layer {
name: "inception_3b/relu_pool_proj"
type: "ReLU"
bottom: "inception_3b/pool_proj"
top: "inception_3b/pool_proj"
}
layer {
name: "inception_3b/output"
type: "Concat"
bottom: "inception_3b/1x1"
bottom: "inception_3b/3x3"
bottom: "inception_3b/5x5"
bottom: "inception_3b/pool_proj"
top: "inception_3b/output"
}
layer {
name: "pool3/3x3_s2"
type: "Pooling"
bottom: "inception_3b/output"
top: "pool3/3x3_s2"
pooling_param {
pool: MAX
kernel_size: 3
stride: 2
}
}
layer {
name: "inception_4a/1x1"
type: "Convolution"
bottom: "pool3/3x3_s2"
top: "inception_4a/1x1"
param {
lr_mult: 1
decay_mult: 1
}
param {
lr_mult: 2
decay_mult: 0
}
convolution_param {
num_output: 192
kernel_size: 1
weight_filler {
type: "xavier"
std: 0.03
}
bias_filler {
type: "constant"
value: 0.2
}
}
}
layer {
name: "inception_4a/relu_1x1"
type: "ReLU"
bottom: "inception_4a/1x1"
top: "inception_4a/1x1"
}
layer {
name: "inception_4a/3x3_reduce"
type: "Convolution"
bottom: "pool3/3x3_s2"
top: "inception_4a/3x3_reduce"
param {
lr_mult: 1
decay_mult: 1
}
param {
lr_mult: 2
decay_mult: 0
}
convolution_param {
num_output: 96
kernel_size: 1
weight_filler {
type: "xavier"
std: 0.09
}
bias_filler {
type: "constant"
value: 0.2
}
}
}
layer {
name: "inception_4a/relu_3x3_reduce"
type: "ReLU"
bottom: "inception_4a/3x3_reduce"
top: "inception_4a/3x3_reduce"
}
layer {
name: "inception_4a/3x3"
type: "Convolution"
bottom: "inception_4a/3x3_reduce"
top: "inception_4a/3x3"
param {
lr_mult: 1
decay_mult: 1
}
param {
lr_mult: 2
decay_mult: 0
}
convolution_param {
num_output: 208
pad: 1
kernel_size: 3
weight_filler {
type: "xavier"
std: 0.03
}
bias_filler {
type: "constant"
value: 0.2
}
}
}
layer {
name: "inception_4a/relu_3x3"
type: "ReLU"
bottom: "inception_4a/3x3"
top: "inception_4a/3x3"
}
layer {
name: "inception_4a/5x5_reduce"
type: "Convolution"
bottom: "pool3/3x3_s2"
top: "inception_4a/5x5_reduce"
param {
lr_mult: 1
decay_mult: 1
}
param {
lr_mult: 2
decay_mult: 0
}
convolution_param {
num_output: 16
kernel_size: 1
weight_filler {
type: "xavier"
std: 0.2
}
bias_filler {
type: "constant"
value: 0.2
}
}
}
layer {
name: "inception_4a/relu_5x5_reduce"
type: "ReLU"
bottom: "inception_4a/5x5_reduce"
top: "inception_4a/5x5_reduce"
}
layer {
name: "inception_4a/5x5"
type: "Convolution"
bottom: "inception_4a/5x5_reduce"
top: "inception_4a/5x5"
param {
lr_mult: 1
decay_mult: 1
}
param {
lr_mult: 2
decay_mult: 0
}
convolution_param {
num_output: 48
pad: 2
kernel_size: 5
weight_filler {
type: "xavier"
std: 0.03
}
bias_filler {
type: "constant"
value: 0.2
}
}
}
layer {
name: "inception_4a/relu_5x5"
type: "ReLU"
bottom: "inception_4a/5x5"
top: "inception_4a/5x5"
}
layer {
name: "inception_4a/pool"
type: "Pooling"
bottom: "pool3/3x3_s2"
top: "inception_4a/pool"
pooling_param {
pool: MAX
kernel_size: 3
stride: 1
pad: 1
}
}
layer {
name: "inception_4a/pool_proj"
type: "Convolution"
bottom: "inception_4a/pool"
top: "inception_4a/pool_proj"
param {
lr_mult: 1
decay_mult: 1
}
param {
lr_mult: 2
decay_mult: 0
}
convolution_param {
num_output: 64
kernel_size: 1
weight_filler {
type: "xavier"
std: 0.1
}
bias_filler {
type: "constant"
value: 0.2
}
}
}
layer {
name: "inception_4a/relu_pool_proj"
type: "ReLU"
bottom: "inception_4a/pool_proj"
top: "inception_4a/pool_proj"
}
layer {
name: "inception_4a/output"
type: "Concat"
bottom: "inception_4a/1x1"
bottom: "inception_4a/3x3"
bottom: "inception_4a/5x5"
bottom: "inception_4a/pool_proj"
top: "inception_4a/output"
}
layer {
name: "loss1/ave_pool"
type: "Pooling"
bottom: "inception_4a/output"
top: "loss1/ave_pool"
pooling_param {
pool: AVE
kernel_size: 5
stride: 3
}
}
layer {
name: "loss1/conv"
type: "Convolution"
bottom: "loss1/ave_pool"
top: "loss1/conv"
param {
lr_mult: 1
decay_mult: 1
}
param {
lr_mult: 2
decay_mult: 0
}
convolution_param {
num_output: 128
kernel_size: 1
weight_filler {
type: "xavier"
std: 0.08
}
bias_filler {
type: "constant"
value: 0.2
}
}
}
layer {
name: "loss1/relu_conv"
type: "ReLU"
bottom: "loss1/conv"
top: "loss1/conv"
}
layer {
name: "loss1/fc"
type: "InnerProduct"
bottom: "loss1/conv"
top: "loss1/fc"
param {
lr_mult: 1
decay_mult: 1
}
param {
lr_mult: 2
decay_mult: 0
}
inner_product_param {
num_output: 1024
weight_filler {
type: "xavier"
std: 0.02
}
bias_filler {
type: "constant"
value: 0.2
}
}
}
layer {
name: "loss1/relu_fc"
type: "ReLU"
bottom: "loss1/fc"
top: "loss1/fc"
}
layer {
name: "loss1/drop_fc"
type: "Dropout"
bottom: "loss1/fc"
top: "loss1/fc"
dropout_param {
dropout_ratio: 0.7
}
}
layer {
name: "loss1/classifier"
type: "InnerProduct"
bottom: "loss1/fc"
top: "loss1/classifier"
param {
lr_mult: 1
decay_mult: 1
}
param {
lr_mult: 2
decay_mult: 0
}
inner_product_param {
num_output: 3
weight_filler {
type: "xavier"
std: 0.0009765625
}
bias_filler {
type: "constant"
value: 0
}
}
}
layer {
name: "loss1/loss"
type: "SoftmaxWithLoss"
bottom: "loss1/classifier"
bottom: "label"
top: "loss1/loss"
loss_weight: 0.3
}
layer {
name: "inception_4b/1x1"
type: "Convolution"
bottom: "inception_4a/output"
top: "inception_4b/1x1"
param {
lr_mult: 1
decay_mult: 1
}
param {
lr_mult: 2
decay_mult: 0
}
convolution_param {
num_output: 160
kernel_size: 1
weight_filler {
type: "xavier"
std: 0.03
}
bias_filler {
type: "constant"
value: 0.2
}
}
}
layer {
name: "inception_4b/relu_1x1"
type: "ReLU"
bottom: "inception_4b/1x1"
top: "inception_4b/1x1"
}
layer {
name: "inception_4b/3x3_reduce"
type: "Convolution"
bottom: "inception_4a/output"
top: "inception_4b/3x3_reduce"
param {
lr_mult: 1
decay_mult: 1
}
param {
lr_mult: 2
decay_mult: 0
}
convolution_param {
num_output: 112
kernel_size: 1
weight_filler {
type: "xavier"
std: 0.09
}
bias_filler {
type: "constant"
value: 0.2
}
}
}
layer {
name: "inception_4b/relu_3x3_reduce"
type: "ReLU"
bottom: "inception_4b/3x3_reduce"
top: "inception_4b/3x3_reduce"
}
layer {
name: "inception_4b/3x3"
type: "Convolution"
bottom: "inception_4b/3x3_reduce"
top: "inception_4b/3x3"
param {
lr_mult: 1
decay_mult: 1
}
param {
lr_mult: 2
decay_mult: 0
}
convolution_param {
num_output: 224
pad: 1
kernel_size: 3
weight_filler {
type: "xavier"
std: 0.03
}
bias_filler {
type: "constant"
value: 0.2
}
}
}
layer {
name: "inception_4b/relu_3x3"
type: "ReLU"
bottom: "inception_4b/3x3"
top: "inception_4b/3x3"
}
layer {
name: "inception_4b/5x5_reduce"
type: "Convolution"
bottom: "inception_4a/output"
top: "inception_4b/5x5_reduce"
param {
lr_mult: 1
decay_mult: 1
}
param {
lr_mult: 2
decay_mult: 0
}
convolution_param {
num_output: 24
kernel_size: 1
weight_filler {
type: "xavier"
std: 0.2
}
bias_filler {
type: "constant"
value: 0.2
}
}
}
layer {
name: "inception_4b/relu_5x5_reduce"
type: "ReLU"
bottom: "inception_4b/5x5_reduce"
top: "inception_4b/5x5_reduce"
}
layer {
name: "inception_4b/5x5"
type: "Convolution"
bottom: "inception_4b/5x5_reduce"
top: "inception_4b/5x5"
param {
lr_mult: 1
decay_mult: 1
}
param {
lr_mult: 2
decay_mult: 0
}
convolution_param {
num_output: 64
pad: 2
kernel_size: 5
weight_filler {
type: "xavier"
std: 0.03
}
bias_filler {
type: "constant"
value: 0.2
}
}
}
layer {
name: "inception_4b/relu_5x5"
type: "ReLU"
bottom: "inception_4b/5x5"
top: "inception_4b/5x5"
}
layer {
name: "inception_4b/pool"
type: "Pooling"
bottom: "inception_4a/output"
top: "inception_4b/pool"
pooling_param {
pool: MAX
kernel_size: 3
stride: 1
pad: 1
}
}
layer {
name: "inception_4b/pool_proj"
type: "Convolution"
bottom: "inception_4b/pool"
top: "inception_4b/pool_proj"
param {
lr_mult: 1
decay_mult: 1
}
param {
lr_mult: 2
decay_mult: 0
}
convolution_param {
num_output: 64
kernel_size: 1
weight_filler {
type: "xavier"
std: 0.1
}
bias_filler {
type: "constant"
value: 0.2
}
}
}
layer {
name: "inception_4b/relu_pool_proj"
type: "ReLU"
bottom: "inception_4b/pool_proj"
top: "inception_4b/pool_proj"
}
layer {
name: "inception_4b/output"
type: "Concat"
bottom: "inception_4b/1x1"
bottom: "inception_4b/3x3"
bottom: "inception_4b/5x5"
bottom: "inception_4b/pool_proj"
top: "inception_4b/output"
}
layer {
name: "inception_4c/1x1"
type: "Convolution"
bottom: "inception_4b/output"
top: "inception_4c/1x1"
param {
lr_mult: 1
decay_mult: 1
}
param {
lr_mult: 2
decay_mult: 0
}
convolution_param {
num_output: 128
kernel_size: 1
weight_filler {
type: "xavier"
std: 0.03
}
bias_filler {
type: "constant"
value: 0.2
}
}
}
layer {
name: "inception_4c/relu_1x1"
type: "ReLU"
bottom: "inception_4c/1x1"
top: "inception_4c/1x1"
}
layer {
name: "inception_4c/3x3_reduce"
type: "Convolution"
bottom: "inception_4b/output"
top: "inception_4c/3x3_reduce"
param {
lr_mult: 1
decay_mult: 1
}
param {
lr_mult: 2
decay_mult: 0
}
convolution_param {
num_output: 128
kernel_size: 1
weight_filler {
type: "xavier"
std: 0.09
}
bias_filler {
type: "constant"
value: 0.2
}
}
}
layer {
name: "inception_4c/relu_3x3_reduce"
type: "ReLU"
bottom: "inception_4c/3x3_reduce"
top: "inception_4c/3x3_reduce"
}
layer {
name: "inception_4c/3x3"
type: "Convolution"
bottom: "inception_4c/3x3_reduce"
top: "inception_4c/3x3"
param {
lr_mult: 1
decay_mult: 1
}
param {
lr_mult: 2
decay_mult: 0
}
convolution_param {
num_output: 256
pad: 1
kernel_size: 3
weight_filler {
type: "xavier"
std: 0.03
}
bias_filler {
type: "constant"
value: 0.2
}
}
}
layer {
name: "inception_4c/relu_3x3"
type: "ReLU"
bottom: "inception_4c/3x3"
top: "inception_4c/3x3"
}
layer {
name: "inception_4c/5x5_reduce"
type: "Convolution"
bottom: "inception_4b/output"
top: "inception_4c/5x5_reduce"
param {
lr_mult: 1
decay_mult: 1
}
param {
lr_mult: 2
decay_mult: 0
}
convolution_param {
num_output: 24
kernel_size: 1
weight_filler {
type: "xavier"
std: 0.2
}
bias_filler {
type: "constant"
value: 0.2
}
}
}
layer {
name: "inception_4c/relu_5x5_reduce"
type: "ReLU"
bottom: "inception_4c/5x5_reduce"
top: "inception_4c/5x5_reduce"
}
layer {
name: "inception_4c/5x5"
type: "Convolution"
bottom: "inception_4c/5x5_reduce"
top: "inception_4c/5x5"
param {
lr_mult: 1
decay_mult: 1
}
param {
lr_mult: 2
decay_mult: 0
}
convolution_param {
num_output: 64
pad: 2
kernel_size: 5
weight_filler {
type: "xavier"
std: 0.03
}
bias_filler {
type: "constant"
value: 0.2
}
}
}
layer {
name: "inception_4c/relu_5x5"
type: "ReLU"
bottom: "inception_4c/5x5"
top: "inception_4c/5x5"
}
layer {
name: "inception_4c/pool"
type: "Pooling"
bottom: "inception_4b/output"
top: "inception_4c/pool"
pooling_param {
pool: MAX
kernel_size: 3
stride: 1
pad: 1
}
}
layer {
name: "inception_4c/pool_proj"
type: "Convolution"
bottom: "inception_4c/pool"
top: "inception_4c/pool_proj"
param {
lr_mult: 1
decay_mult: 1
}
param {
lr_mult: 2
decay_mult: 0
}
convolution_param {
num_output: 64
kernel_size: 1
weight_filler {
type: "xavier"
std: 0.1
}
bias_filler {
type: "constant"
value: 0.2
}
}
}
layer {
name: "inception_4c/relu_pool_proj"
type: "ReLU"
bottom: "inception_4c/pool_proj"
top: "inception_4c/pool_proj"
}
layer {
name: "inception_4c/output"
type: "Concat"
bottom: "inception_4c/1x1"
bottom: "inception_4c/3x3"
bottom: "inception_4c/5x5"
bottom: "inception_4c/pool_proj"
top: "inception_4c/output"
}
layer {
name: "inception_4d/1x1"
type: "Convolution"
bottom: "inception_4c/output"
top: "inception_4d/1x1"
param {
lr_mult: 1
decay_mult: 1
}
param {
lr_mult: 2
decay_mult: 0
}
convolution_param {
num_output: 112
kernel_size: 1
weight_filler {
type: "xavier"
std: 0.03
}
bias_filler {
type: "constant"
value: 0.2
}
}
}
layer {
name: "inception_4d/relu_1x1"
type: "ReLU"
bottom: "inception_4d/1x1"
top: "inception_4d/1x1"
}
layer {
name: "inception_4d/3x3_reduce"
type: "Convolution"
bottom: "inception_4c/output"
top: "inception_4d/3x3_reduce"
param {
lr_mult: 1
decay_mult: 1
}
param {
lr_mult: 2
decay_mult: 0
}
convolution_param {
num_output: 144
kernel_size: 1
weight_filler {
type: "xavier"
std: 0.09
}
bias_filler {
type: "constant"
value: 0.2
}
}
}
layer {
name: "inception_4d/relu_3x3_reduce"
type: "ReLU"
bottom: "inception_4d/3x3_reduce"
top: "inception_4d/3x3_reduce"
}
layer {
name: "inception_4d/3x3"
type: "Convolution"
bottom: "inception_4d/3x3_reduce"
top: "inception_4d/3x3"
param {
lr_mult: 1
decay_mult: 1
}
param {
lr_mult: 2
decay_mult: 0
}
convolution_param {
num_output: 288
pad: 1
kernel_size: 3
weight_filler {
type: "xavier"
std: 0.03
}
bias_filler {
type: "constant"
value: 0.2
}
}
}
layer {
name: "inception_4d/relu_3x3"
type: "ReLU"
bottom: "inception_4d/3x3"
top: "inception_4d/3x3"
}
layer {
name: "inception_4d/5x5_reduce"
type: "Convolution"
bottom: "inception_4c/output"
top: "inception_4d/5x5_reduce"
param {
lr_mult: 1
decay_mult: 1
}
param {
lr_mult: 2
decay_mult: 0
}
convolution_param {
num_output: 32
kernel_size: 1
weight_filler {
type: "xavier"
std: 0.2
}
bias_filler {
type: "constant"
value: 0.2
}
}
}
layer {
name: "inception_4d/relu_5x5_reduce"
type: "ReLU"
bottom: "inception_4d/5x5_reduce"
top: "inception_4d/5x5_reduce"
}
layer {
name: "inception_4d/5x5"
type: "Convolution"
bottom: "inception_4d/5x5_reduce"
top: "inception_4d/5x5"
param {
lr_mult: 1
decay_mult: 1
}
param {
lr_mult: 2
decay_mult: 0
}
convolution_param {
num_output: 64
pad: 2
kernel_size: 5
weight_filler {
type: "xavier"
std: 0.03
}
bias_filler {
type: "constant"
value: 0.2
}
}
}
layer {
name: "inception_4d/relu_5x5"
type: "ReLU"
bottom: "inception_4d/5x5"
top: "inception_4d/5x5"
}
layer {
name: "inception_4d/pool"
type: "Pooling"
bottom: "inception_4c/output"
top: "inception_4d/pool"
pooling_param {
pool: MAX
kernel_size: 3
stride: 1
pad: 1
}
}
layer {
name: "inception_4d/pool_proj"
type: "Convolution"
bottom: "inception_4d/pool"
top: "inception_4d/pool_proj"
param {
lr_mult: 1
decay_mult: 1
}
param {
lr_mult: 2
decay_mult: 0
}
convolution_param {
num_output: 64
kernel_size: 1
weight_filler {
type: "xavier"
std: 0.1
}
bias_filler {
type: "constant"
value: 0.2
}
}
}
layer {
name: "inception_4d/relu_pool_proj"
type: "ReLU"
bottom: "inception_4d/pool_proj"
top: "inception_4d/pool_proj"
}
layer {
name: "inception_4d/output"
type: "Concat"
bottom: "inception_4d/1x1"
bottom: "inception_4d/3x3"
bottom: "inception_4d/5x5"
bottom: "inception_4d/pool_proj"
top: "inception_4d/output"
}
layer {
name: "loss2/ave_pool"
type: "Pooling"
bottom: "inception_4d/output"
top: "loss2/ave_pool"
pooling_param {
pool: AVE
kernel_size: 5
stride: 3
}
}
layer {
name: "loss2/conv"
type: "Convolution"
bottom: "loss2/ave_pool"
top: "loss2/conv"
param {
lr_mult: 1
decay_mult: 1
}
param {
lr_mult: 2
decay_mult: 0
}
convolution_param {
num_output: 128
kernel_size: 1
weight_filler {
type: "xavier"
std: 0.08
}
bias_filler {
type: "constant"
value: 0.2
}
}
}
layer {
name: "loss2/relu_conv"
type: "ReLU"
bottom: "loss2/conv"
top: "loss2/conv"
}
layer {
name: "loss2/fc"
type: "InnerProduct"
bottom: "loss2/conv"
top: "loss2/fc"
param {
lr_mult: 1
decay_mult: 1
}
param {
lr_mult: 2
decay_mult: 0
}
inner_product_param {
num_output: 1024
weight_filler {
type: "xavier"
std: 0.02
}
bias_filler {
type: "constant"
value: 0.2
}
}
}
layer {
name: "loss2/relu_fc"
type: "ReLU"
bottom: "loss2/fc"
top: "loss2/fc"
}
layer {
name: "loss2/drop_fc"
type: "Dropout"
bottom: "loss2/fc"
top: "loss2/fc"
dropout_param {
dropout_ratio: 0.7
}
}
layer {
name: "loss2/classifier"
type: "InnerProduct"
bottom: "loss2/fc"
top: "loss2/classifier"
param {
lr_mult: 1
decay_mult: 1
}
param {
lr_mult: 2
decay_mult: 0
}
inner_product_param {
num_output: 3
weight_filler {
type: "xavier"
std: 0.0009765625
}
bias_filler {
type: "constant"
value: 0
}
}
}
layer {
name: "loss2/loss"
type: "SoftmaxWithLoss"
bottom: "loss2/classifier"
bottom: "label"
top: "loss2/loss"
loss_weight: 0.3
}
layer {
name: "inception_4e/1x1"
type: "Convolution"
bottom: "inception_4d/output"
top: "inception_4e/1x1"
param {
lr_mult: 1
decay_mult: 1
}
param {
lr_mult: 2
decay_mult: 0
}
convolution_param {
num_output: 256
kernel_size: 1
weight_filler {
type: "xavier"
std: 0.03
}
bias_filler {
type: "constant"
value: 0.2
}
}
}
layer {
name: "inception_4e/relu_1x1"
type: "ReLU"
bottom: "inception_4e/1x1"
top: "inception_4e/1x1"
}
layer {
name: "inception_4e/3x3_reduce"
type: "Convolution"
bottom: "inception_4d/output"
top: "inception_4e/3x3_reduce"
param {
lr_mult: 1
decay_mult: 1
}
param {
lr_mult: 2
decay_mult: 0
}
convolution_param {
num_output: 160
kernel_size: 1
weight_filler {
type: "xavier"
std: 0.09
}
bias_filler {
type: "constant"
value: 0.2
}
}
}
layer {
name: "inception_4e/relu_3x3_reduce"
type: "ReLU"
bottom: "inception_4e/3x3_reduce"
top: "inception_4e/3x3_reduce"
}
layer {
name: "inception_4e/3x3"
type: "Convolution"
bottom: "inception_4e/3x3_reduce"
top: "inception_4e/3x3"
param {
lr_mult: 1
decay_mult: 1
}
param {
lr_mult: 2
decay_mult: 0
}
convolution_param {
num_output: 320
pad: 1
kernel_size: 3
weight_filler {
type: "xavier"
std: 0.03
}
bias_filler {
type: "constant"
value: 0.2
}
}
}
layer {
name: "inception_4e/relu_3x3"
type: "ReLU"
bottom: "inception_4e/3x3"
top: "inception_4e/3x3"
}
layer {
name: "inception_4e/5x5_reduce"
type: "Convolution"
bottom: "inception_4d/output"
top: "inception_4e/5x5_reduce"
param {
lr_mult: 1
decay_mult: 1
}
param {
lr_mult: 2
decay_mult: 0
}
convolution_param {
num_output: 32
kernel_size: 1
weight_filler {
type: "xavier"
std: 0.2
}
bias_filler {
type: "constant"
value: 0.2
}
}
}
layer {
name: "inceptio
I0306 15:53:12.072959   531 layer_factory.hpp:77] Creating layer train-data
I0306 15:53:12.073483   531 net.cpp:94] Creating Layer train-data
I0306 15:53:12.073501   531 net.cpp:409] train-data -> data
I0306 15:53:12.073527   531 net.cpp:409] train-data -> label
I0306 15:53:12.073541   531 data_transformer.cpp:25] Loading mean file from: /opt/DIGITS/digits/jobs/20200306-152817-4bfc/mean.binaryproto
I0306 15:53:12.074357   536 db_lmdb.cpp:35] Opened lmdb /opt/DIGITS/digits/jobs/20200306-152817-4bfc/train_db
I0306 15:53:12.084183   531 data_layer.cpp:78] ReshapePrefetch 32, 3, 224, 224
I0306 15:53:12.084273   531 data_layer.cpp:83] output data size: 32,3,224,224
I0306 15:53:12.122256   531 net.cpp:144] Setting up train-data
I0306 15:53:12.122288   531 net.cpp:151] Top shape: 32 3 224 224 (4816896)
I0306 15:53:12.122294   531 net.cpp:151] Top shape: 32 (32)
I0306 15:53:12.122298   531 net.cpp:159] Memory required for data: 19267712
I0306 15:53:12.122311   531 layer_factory.hpp:77] Creating layer label_train-data_1_split
I0306 15:53:12.122349   531 net.cpp:94] Creating Layer label_train-data_1_split
I0306 15:53:12.122356   531 net.cpp:435] label_train-data_1_split <- label
I0306 15:53:12.122371   531 net.cpp:409] label_train-data_1_split -> label_train-data_1_split_0
I0306 15:53:12.122382   531 net.cpp:409] label_train-data_1_split -> label_train-data_1_split_1
I0306 15:53:12.122408   531 net.cpp:409] label_train-data_1_split -> label_train-data_1_split_2
I0306 15:53:12.122490   531 net.cpp:144] Setting up label_train-data_1_split
I0306 15:53:12.122499   531 net.cpp:151] Top shape: 32 (32)
I0306 15:53:12.122503   531 net.cpp:151] Top shape: 32 (32)
I0306 15:53:12.122507   531 net.cpp:151] Top shape: 32 (32)
I0306 15:53:12.122510   531 net.cpp:159] Memory required for data: 19268096
I0306 15:53:12.122514   531 layer_factory.hpp:77] Creating layer conv1/7x7_s2
I0306 15:53:12.122536   531 net.cpp:94] Creating Layer conv1/7x7_s2
I0306 15:53:12.122540   531 net.cpp:435] conv1/7x7_s2 <- data
I0306 15:53:12.122548   531 net.cpp:409] conv1/7x7_s2 -> conv1/7x7_s2
I0306 15:53:12.122889   531 net.cpp:144] Setting up conv1/7x7_s2
I0306 15:53:12.122900   531 net.cpp:151] Top shape: 32 64 112 112 (25690112)
I0306 15:53:12.122905   531 net.cpp:159] Memory required for data: 122028544
I0306 15:53:12.122921   531 layer_factory.hpp:77] Creating layer conv1/relu_7x7
I0306 15:53:12.122928   531 net.cpp:94] Creating Layer conv1/relu_7x7
I0306 15:53:12.122932   531 net.cpp:435] conv1/relu_7x7 <- conv1/7x7_s2
I0306 15:53:12.122937   531 net.cpp:396] conv1/relu_7x7 -> conv1/7x7_s2 (in-place)
I0306 15:53:12.122954   531 net.cpp:144] Setting up conv1/relu_7x7
I0306 15:53:12.122961   531 net.cpp:151] Top shape: 32 64 112 112 (25690112)
I0306 15:53:12.122963   531 net.cpp:159] Memory required for data: 224788992
I0306 15:53:12.122967   531 layer_factory.hpp:77] Creating layer pool1/3x3_s2
I0306 15:53:12.122977   531 net.cpp:94] Creating Layer pool1/3x3_s2
I0306 15:53:12.122980   531 net.cpp:435] pool1/3x3_s2 <- conv1/7x7_s2
I0306 15:53:12.122985   531 net.cpp:409] pool1/3x3_s2 -> pool1/3x3_s2
I0306 15:53:12.123271   531 net.cpp:144] Setting up pool1/3x3_s2
I0306 15:53:12.123284   531 net.cpp:151] Top shape: 32 64 56 56 (6422528)
I0306 15:53:12.123288   531 net.cpp:159] Memory required for data: 250479104
I0306 15:53:12.123292   531 layer_factory.hpp:77] Creating layer pool1/norm1
I0306 15:53:12.123302   531 net.cpp:94] Creating Layer pool1/norm1
I0306 15:53:12.123306   531 net.cpp:435] pool1/norm1 <- pool1/3x3_s2
I0306 15:53:12.123313   531 net.cpp:409] pool1/norm1 -> pool1/norm1
I0306 15:53:12.123375   531 net.cpp:144] Setting up pool1/norm1
I0306 15:53:12.123383   531 net.cpp:151] Top shape: 32 64 56 56 (6422528)
I0306 15:53:12.123404   531 net.cpp:159] Memory required for data: 276169216
I0306 15:53:12.123406   531 layer_factory.hpp:77] Creating layer conv2/3x3_reduce
I0306 15:53:12.123416   531 net.cpp:94] Creating Layer conv2/3x3_reduce
I0306 15:53:12.123420   531 net.cpp:435] conv2/3x3_reduce <- pool1/norm1
I0306 15:53:12.123427   531 net.cpp:409] conv2/3x3_reduce -> conv2/3x3_reduce
I0306 15:53:12.123653   531 net.cpp:144] Setting up conv2/3x3_reduce
I0306 15:53:12.123663   531 net.cpp:151] Top shape: 32 64 56 56 (6422528)
I0306 15:53:12.123667   531 net.cpp:159] Memory required for data: 301859328
I0306 15:53:12.123674   531 layer_factory.hpp:77] Creating layer conv2/relu_3x3_reduce
I0306 15:53:12.123682   531 net.cpp:94] Creating Layer conv2/relu_3x3_reduce
I0306 15:53:12.123684   531 net.cpp:435] conv2/relu_3x3_reduce <- conv2/3x3_reduce
I0306 15:53:12.123690   531 net.cpp:396] conv2/relu_3x3_reduce -> conv2/3x3_reduce (in-place)
I0306 15:53:12.123697   531 net.cpp:144] Setting up conv2/relu_3x3_reduce
I0306 15:53:12.123704   531 net.cpp:151] Top shape: 32 64 56 56 (6422528)
I0306 15:53:12.123708   531 net.cpp:159] Memory required for data: 327549440
I0306 15:53:12.123710   531 layer_factory.hpp:77] Creating layer conv2/3x3
I0306 15:53:12.123721   531 net.cpp:94] Creating Layer conv2/3x3
I0306 15:53:12.123724   531 net.cpp:435] conv2/3x3 <- conv2/3x3_reduce
I0306 15:53:12.123731   531 net.cpp:409] conv2/3x3 -> conv2/3x3
I0306 15:53:12.125253   531 net.cpp:144] Setting up conv2/3x3
I0306 15:53:12.125268   531 net.cpp:151] Top shape: 32 192 56 56 (19267584)
I0306 15:53:12.125272   531 net.cpp:159] Memory required for data: 404619776
I0306 15:53:12.125281   531 layer_factory.hpp:77] Creating layer conv2/relu_3x3
I0306 15:53:12.125304   531 net.cpp:94] Creating Layer conv2/relu_3x3
I0306 15:53:12.125309   531 net.cpp:435] conv2/relu_3x3 <- conv2/3x3
I0306 15:53:12.125315   531 net.cpp:396] conv2/relu_3x3 -> conv2/3x3 (in-place)
I0306 15:53:12.125324   531 net.cpp:144] Setting up conv2/relu_3x3
I0306 15:53:12.125329   531 net.cpp:151] Top shape: 32 192 56 56 (19267584)
I0306 15:53:12.125331   531 net.cpp:159] Memory required for data: 481690112
I0306 15:53:12.125335   531 layer_factory.hpp:77] Creating layer conv2/norm2
I0306 15:53:12.125341   531 net.cpp:94] Creating Layer conv2/norm2
I0306 15:53:12.125345   531 net.cpp:435] conv2/norm2 <- conv2/3x3
I0306 15:53:12.125350   531 net.cpp:409] conv2/norm2 -> conv2/norm2
I0306 15:53:12.125386   531 net.cpp:144] Setting up conv2/norm2
I0306 15:53:12.125393   531 net.cpp:151] Top shape: 32 192 56 56 (19267584)
I0306 15:53:12.125396   531 net.cpp:159] Memory required for data: 558760448
I0306 15:53:12.125399   531 layer_factory.hpp:77] Creating layer pool2/3x3_s2
I0306 15:53:12.125406   531 net.cpp:94] Creating Layer pool2/3x3_s2
I0306 15:53:12.125409   531 net.cpp:435] pool2/3x3_s2 <- conv2/norm2
I0306 15:53:12.125414   531 net.cpp:409] pool2/3x3_s2 -> pool2/3x3_s2
I0306 15:53:12.125443   531 net.cpp:144] Setting up pool2/3x3_s2
I0306 15:53:12.125448   531 net.cpp:151] Top shape: 32 192 28 28 (4816896)
I0306 15:53:12.125452   531 net.cpp:159] Memory required for data: 578028032
I0306 15:53:12.125455   531 layer_factory.hpp:77] Creating layer pool2/3x3_s2_pool2/3x3_s2_0_split
I0306 15:53:12.125460   531 net.cpp:94] Creating Layer pool2/3x3_s2_pool2/3x3_s2_0_split
I0306 15:53:12.125464   531 net.cpp:435] pool2/3x3_s2_pool2/3x3_s2_0_split <- pool2/3x3_s2
I0306 15:53:12.125469   531 net.cpp:409] pool2/3x3_s2_pool2/3x3_s2_0_split -> pool2/3x3_s2_pool2/3x3_s2_0_split_0
I0306 15:53:12.125476   531 net.cpp:409] pool2/3x3_s2_pool2/3x3_s2_0_split -> pool2/3x3_s2_pool2/3x3_s2_0_split_1
I0306 15:53:12.125483   531 net.cpp:409] pool2/3x3_s2_pool2/3x3_s2_0_split -> pool2/3x3_s2_pool2/3x3_s2_0_split_2
I0306 15:53:12.125488   531 net.cpp:409] pool2/3x3_s2_pool2/3x3_s2_0_split -> pool2/3x3_s2_pool2/3x3_s2_0_split_3
I0306 15:53:12.125532   531 net.cpp:144] Setting up pool2/3x3_s2_pool2/3x3_s2_0_split
I0306 15:53:12.125538   531 net.cpp:151] Top shape: 32 192 28 28 (4816896)
I0306 15:53:12.125542   531 net.cpp:151] Top shape: 32 192 28 28 (4816896)
I0306 15:53:12.125546   531 net.cpp:151] Top shape: 32 192 28 28 (4816896)
I0306 15:53:12.125550   531 net.cpp:151] Top shape: 32 192 28 28 (4816896)
I0306 15:53:12.125552   531 net.cpp:159] Memory required for data: 655098368
I0306 15:53:12.125556   531 layer_factory.hpp:77] Creating layer inception_3a/1x1
I0306 15:53:12.125566   531 net.cpp:94] Creating Layer inception_3a/1x1
I0306 15:53:12.125569   531 net.cpp:435] inception_3a/1x1 <- pool2/3x3_s2_pool2/3x3_s2_0_split_0
I0306 15:53:12.125576   531 net.cpp:409] inception_3a/1x1 -> inception_3a/1x1
I0306 15:53:12.125855   531 net.cpp:144] Setting up inception_3a/1x1
I0306 15:53:12.125865   531 net.cpp:151] Top shape: 32 64 28 28 (1605632)
I0306 15:53:12.125869   531 net.cpp:159] Memory required for data: 661520896
I0306 15:53:12.125874   531 layer_factory.hpp:77] Creating layer inception_3a/relu_1x1
I0306 15:53:12.125880   531 net.cpp:94] Creating Layer inception_3a/relu_1x1
I0306 15:53:12.125886   531 net.cpp:435] inception_3a/relu_1x1 <- inception_3a/1x1
I0306 15:53:12.125891   531 net.cpp:396] inception_3a/relu_1x1 -> inception_3a/1x1 (in-place)
I0306 15:53:12.125900   531 net.cpp:144] Setting up inception_3a/relu_1x1
I0306 15:53:12.125903   531 net.cpp:151] Top shape: 32 64 28 28 (1605632)
I0306 15:53:12.125906   531 net.cpp:159] Memory required for data: 667943424
I0306 15:53:12.125910   531 layer_factory.hpp:77] Creating layer inception_3a/3x3_reduce
I0306 15:53:12.125918   531 net.cpp:94] Creating Layer inception_3a/3x3_reduce
I0306 15:53:12.125922   531 net.cpp:435] inception_3a/3x3_reduce <- pool2/3x3_s2_pool2/3x3_s2_0_split_1
I0306 15:53:12.125929   531 net.cpp:409] inception_3a/3x3_reduce -> inception_3a/3x3_reduce
I0306 15:53:12.126243   531 net.cpp:144] Setting up inception_3a/3x3_reduce
I0306 15:53:12.126253   531 net.cpp:151] Top shape: 32 96 28 28 (2408448)
I0306 15:53:12.126256   531 net.cpp:159] Memory required for data: 677577216
I0306 15:53:12.126264   531 layer_factory.hpp:77] Creating layer inception_3a/relu_3x3_reduce
I0306 15:53:12.126273   531 net.cpp:94] Creating Layer inception_3a/relu_3x3_reduce
I0306 15:53:12.126277   531 net.cpp:435] inception_3a/relu_3x3_reduce <- inception_3a/3x3_reduce
I0306 15:53:12.126282   531 net.cpp:396] inception_3a/relu_3x3_reduce -> inception_3a/3x3_reduce (in-place)
I0306 15:53:12.126289   531 net.cpp:144] Setting up inception_3a/relu_3x3_reduce
I0306 15:53:12.126293   531 net.cpp:151] Top shape: 32 96 28 28 (2408448)
I0306 15:53:12.126296   531 net.cpp:159] Memory required for data: 687211008
I0306 15:53:12.126299   531 layer_factory.hpp:77] Creating layer inception_3a/3x3
I0306 15:53:12.126308   531 net.cpp:94] Creating Layer inception_3a/3x3
I0306 15:53:12.126312   531 net.cpp:435] inception_3a/3x3 <- inception_3a/3x3_reduce
I0306 15:53:12.126318   531 net.cpp:409] inception_3a/3x3 -> inception_3a/3x3
I0306 15:53:12.128672   531 net.cpp:144] Setting up inception_3a/3x3
I0306 15:53:12.128696   531 net.cpp:151] Top shape: 32 128 28 28 (3211264)
I0306 15:53:12.128702   531 net.cpp:159] Memory required for data: 700056064
I0306 15:53:12.128712   531 layer_factory.hpp:77] Creating layer inception_3a/relu_3x3
I0306 15:53:12.128724   531 net.cpp:94] Creating Layer inception_3a/relu_3x3
I0306 15:53:12.128736   531 net.cpp:435] inception_3a/relu_3x3 <- inception_3a/3x3
I0306 15:53:12.128748   531 net.cpp:396] inception_3a/relu_3x3 -> inception_3a/3x3 (in-place)
I0306 15:53:12.128760   531 net.cpp:144] Setting up inception_3a/relu_3x3
I0306 15:53:12.128769   531 net.cpp:151] Top shape: 32 128 28 28 (3211264)
I0306 15:53:12.128775   531 net.cpp:159] Memory required for data: 712901120
I0306 15:53:12.128795   531 layer_factory.hpp:77] Creating layer inception_3a/5x5_reduce
I0306 15:53:12.128810   531 net.cpp:94] Creating Layer inception_3a/5x5_reduce
I0306 15:53:12.128818   531 net.cpp:435] inception_3a/5x5_reduce <- pool2/3x3_s2_pool2/3x3_s2_0_split_2
I0306 15:53:12.128830   531 net.cpp:409] inception_3a/5x5_reduce -> inception_3a/5x5_reduce
I0306 15:53:12.129292   531 net.cpp:144] Setting up inception_3a/5x5_reduce
I0306 15:53:12.129319   531 net.cpp:151] Top shape: 32 16 28 28 (401408)
I0306 15:53:12.129326   531 net.cpp:159] Memory required for data: 714506752
I0306 15:53:12.129338   531 layer_factory.hpp:77] Creating layer inception_3a/relu_5x5_reduce
I0306 15:53:12.129351   531 net.cpp:94] Creating Layer inception_3a/relu_5x5_reduce
I0306 15:53:12.129359   531 net.cpp:435] inception_3a/relu_5x5_reduce <- inception_3a/5x5_reduce
I0306 15:53:12.129369   531 net.cpp:396] inception_3a/relu_5x5_reduce -> inception_3a/5x5_reduce (in-place)
I0306 15:53:12.129386   531 net.cpp:144] Setting up inception_3a/relu_5x5_reduce
I0306 15:53:12.129396   531 net.cpp:151] Top shape: 32 16 28 28 (401408)
I0306 15:53:12.129405   531 net.cpp:159] Memory required for data: 716112384
I0306 15:53:12.129411   531 layer_factory.hpp:77] Creating layer inception_3a/5x5
I0306 15:53:12.129426   531 net.cpp:94] Creating Layer inception_3a/5x5
I0306 15:53:12.129436   531 net.cpp:435] inception_3a/5x5 <- inception_3a/5x5_reduce
I0306 15:53:12.129447   531 net.cpp:409] inception_3a/5x5 -> inception_3a/5x5
I0306 15:53:12.129911   531 net.cpp:144] Setting up inception_3a/5x5
I0306 15:53:12.129928   531 net.cpp:151] Top shape: 32 32 28 28 (802816)
I0306 15:53:12.129933   531 net.cpp:159] Memory required for data: 719323648
I0306 15:53:12.129943   531 layer_factory.hpp:77] Creating layer inception_3a/relu_5x5
I0306 15:53:12.129952   531 net.cpp:94] Creating Layer inception_3a/relu_5x5
I0306 15:53:12.129958   531 net.cpp:435] inception_3a/relu_5x5 <- inception_3a/5x5
I0306 15:53:12.129967   531 net.cpp:396] inception_3a/relu_5x5 -> inception_3a/5x5 (in-place)
I0306 15:53:12.129978   531 net.cpp:144] Setting up inception_3a/relu_5x5
I0306 15:53:12.130010   531 net.cpp:151] Top shape: 32 32 28 28 (802816)
I0306 15:53:12.130017   531 net.cpp:159] Memory required for data: 722534912
I0306 15:53:12.130021   531 layer_factory.hpp:77] Creating layer inception_3a/pool
I0306 15:53:12.130033   531 net.cpp:94] Creating Layer inception_3a/pool
I0306 15:53:12.130038   531 net.cpp:435] inception_3a/pool <- pool2/3x3_s2_pool2/3x3_s2_0_split_3
I0306 15:53:12.130048   531 net.cpp:409] inception_3a/pool -> inception_3a/pool
I0306 15:53:12.130102   531 net.cpp:144] Setting up inception_3a/pool
I0306 15:53:12.130113   531 net.cpp:151] Top shape: 32 192 28 28 (4816896)
I0306 15:53:12.130118   531 net.cpp:159] Memory required for data: 741802496
I0306 15:53:12.130125   531 layer_factory.hpp:77] Creating layer inception_3a/pool_proj
I0306 15:53:12.130137   531 net.cpp:94] Creating Layer inception_3a/pool_proj
I0306 15:53:12.130143   531 net.cpp:435] inception_3a/pool_proj <- inception_3a/pool
I0306 15:53:12.130153   531 net.cpp:409] inception_3a/pool_proj -> inception_3a/pool_proj
I0306 15:53:12.131461   531 net.cpp:144] Setting up inception_3a/pool_proj
I0306 15:53:12.131489   531 net.cpp:151] Top shape: 32 32 28 28 (802816)
I0306 15:53:12.131494   531 net.cpp:159] Memory required for data: 745013760
I0306 15:53:12.131510   531 layer_factory.hpp:77] Creating layer inception_3a/relu_pool_proj
I0306 15:53:12.131521   531 net.cpp:94] Creating Layer inception_3a/relu_pool_proj
I0306 15:53:12.131527   531 net.cpp:435] inception_3a/relu_pool_proj <- inception_3a/pool_proj
I0306 15:53:12.131537   531 net.cpp:396] inception_3a/relu_pool_proj -> inception_3a/pool_proj (in-place)
I0306 15:53:12.131548   531 net.cpp:144] Setting up inception_3a/relu_pool_proj
I0306 15:53:12.131556   531 net.cpp:151] Top shape: 32 32 28 28 (802816)
I0306 15:53:12.131561   531 net.cpp:159] Memory required for data: 748225024
I0306 15:53:12.131567   531 layer_factory.hpp:77] Creating layer inception_3a/output
I0306 15:53:12.131577   531 net.cpp:94] Creating Layer inception_3a/output
I0306 15:53:12.131582   531 net.cpp:435] inception_3a/output <- inception_3a/1x1
I0306 15:53:12.131588   531 net.cpp:435] inception_3a/output <- inception_3a/3x3
I0306 15:53:12.131595   531 net.cpp:435] inception_3a/output <- inception_3a/5x5
I0306 15:53:12.131601   531 net.cpp:435] inception_3a/output <- inception_3a/pool_proj
I0306 15:53:12.131620   531 net.cpp:409] inception_3a/output -> inception_3a/output
I0306 15:53:12.131660   531 net.cpp:144] Setting up inception_3a/output
I0306 15:53:12.131670   531 net.cpp:151] Top shape: 32 256 28 28 (6422528)
I0306 15:53:12.131675   531 net.cpp:159] Memory required for data: 773915136
I0306 15:53:12.131681   531 layer_factory.hpp:77] Creating layer inception_3a/output_inception_3a/output_0_split
I0306 15:53:12.131691   531 net.cpp:94] Creating Layer inception_3a/output_inception_3a/output_0_split
I0306 15:53:12.131696   531 net.cpp:435] inception_3a/output_inception_3a/output_0_split <- inception_3a/output
I0306 15:53:12.131706   531 net.cpp:409] inception_3a/output_inception_3a/output_0_split -> inception_3a/output_inception_3a/output_0_split_0
I0306 15:53:12.131717   531 net.cpp:409] inception_3a/output_inception_3a/output_0_split -> inception_3a/output_inception_3a/output_0_split_1
I0306 15:53:12.131731   531 net.cpp:409] inception_3a/output_inception_3a/output_0_split -> inception_3a/output_inception_3a/output_0_split_2
I0306 15:53:12.131742   531 net.cpp:409] inception_3a/output_inception_3a/output_0_split -> inception_3a/output_inception_3a/output_0_split_3
I0306 15:53:12.131820   531 net.cpp:144] Setting up inception_3a/output_inception_3a/output_0_split
I0306 15:53:12.131830   531 net.cpp:151] Top shape: 32 256 28 28 (6422528)
I0306 15:53:12.131837   531 net.cpp:151] Top shape: 32 256 28 28 (6422528)
I0306 15:53:12.131844   531 net.cpp:151] Top shape: 32 256 28 28 (6422528)
I0306 15:53:12.131851   531 net.cpp:151] Top shape: 32 256 28 28 (6422528)
I0306 15:53:12.131856   531 net.cpp:159] Memory required for data: 876675584
I0306 15:53:12.131861   531 layer_factory.hpp:77] Creating layer inception_3b/1x1
I0306 15:53:12.131893   531 net.cpp:94] Creating Layer inception_3b/1x1
I0306 15:53:12.131901   531 net.cpp:435] inception_3b/1x1 <- inception_3a/output_inception_3a/output_0_split_0
I0306 15:53:12.131911   531 net.cpp:409] inception_3b/1x1 -> inception_3b/1x1
I0306 15:53:12.132551   531 net.cpp:144] Setting up inception_3b/1x1
I0306 15:53:12.132565   531 net.cpp:151] Top shape: 32 128 28 28 (3211264)
I0306 15:53:12.132571   531 net.cpp:159] Memory required for data: 889520640
I0306 15:53:12.132581   531 layer_factory.hpp:77] Creating layer inception_3b/relu_1x1
I0306 15:53:12.132591   531 net.cpp:94] Creating Layer inception_3b/relu_1x1
I0306 15:53:12.132596   531 net.cpp:435] inception_3b/relu_1x1 <- inception_3b/1x1
I0306 15:53:12.132668   531 net.cpp:396] inception_3b/relu_1x1 -> inception_3b/1x1 (in-place)
I0306 15:53:12.132709   531 net.cpp:144] Setting up inception_3b/relu_1x1
I0306 15:53:12.132721   531 net.cpp:151] Top shape: 32 128 28 28 (3211264)
I0306 15:53:12.132727   531 net.cpp:159] Memory required for data: 902365696
I0306 15:53:12.132733   531 layer_factory.hpp:77] Creating layer inception_3b/3x3_reduce
I0306 15:53:12.132751   531 net.cpp:94] Creating Layer inception_3b/3x3_reduce
I0306 15:53:12.132759   531 net.cpp:435] inception_3b/3x3_reduce <- inception_3a/output_inception_3a/output_0_split_1
I0306 15:53:12.132771   531 net.cpp:409] inception_3b/3x3_reduce -> inception_3b/3x3_reduce
I0306 15:53:12.133461   531 net.cpp:144] Setting up inception_3b/3x3_reduce
I0306 15:53:12.133477   531 net.cpp:151] Top shape: 32 128 28 28 (3211264)
I0306 15:53:12.133483   531 net.cpp:159] Memory required for data: 915210752
I0306 15:53:12.133492   531 layer_factory.hpp:77] Creating layer inception_3b/relu_3x3_reduce
I0306 15:53:12.133502   531 net.cpp:94] Creating Layer inception_3b/relu_3x3_reduce
I0306 15:53:12.133509   531 net.cpp:435] inception_3b/relu_3x3_reduce <- inception_3b/3x3_reduce
I0306 15:53:12.133519   531 net.cpp:396] inception_3b/relu_3x3_reduce -> inception_3b/3x3_reduce (in-place)
I0306 15:53:12.133530   531 net.cpp:144] Setting up inception_3b/relu_3x3_reduce
I0306 15:53:12.133538   531 net.cpp:151] Top shape: 32 128 28 28 (3211264)
I0306 15:53:12.133543   531 net.cpp:159] Memory required for data: 928055808
I0306 15:53:12.133548   531 layer_factory.hpp:77] Creating layer inception_3b/3x3
I0306 15:53:12.133569   531 net.cpp:94] Creating Layer inception_3b/3x3
I0306 15:53:12.133576   531 net.cpp:435] inception_3b/3x3 <- inception_3b/3x3_reduce
I0306 15:53:12.133585   531 net.cpp:409] inception_3b/3x3 -> inception_3b/3x3
I0306 15:53:12.137238   531 net.cpp:144] Setting up inception_3b/3x3
I0306 15:53:12.137260   531 net.cpp:151] Top shape: 32 192 28 28 (4816896)
I0306 15:53:12.137266   531 net.cpp:159] Memory required for data: 947323392
I0306 15:53:12.137276   531 layer_factory.hpp:77] Creating layer inception_3b/relu_3x3
I0306 15:53:12.137287   531 net.cpp:94] Creating Layer inception_3b/relu_3x3
I0306 15:53:12.137293   531 net.cpp:435] inception_3b/relu_3x3 <- inception_3b/3x3
I0306 15:53:12.137318   531 net.cpp:396] inception_3b/relu_3x3 -> inception_3b/3x3 (in-place)
I0306 15:53:12.137334   531 net.cpp:144] Setting up inception_3b/relu_3x3
I0306 15:53:12.137343   531 net.cpp:151] Top shape: 32 192 28 28 (4816896)
I0306 15:53:12.137348   531 net.cpp:159] Memory required for data: 966590976
I0306 15:53:12.137354   531 layer_factory.hpp:77] Creating layer inception_3b/5x5_reduce
I0306 15:53:12.137367   531 net.cpp:94] Creating Layer inception_3b/5x5_reduce
I0306 15:53:12.137374   531 net.cpp:435] inception_3b/5x5_reduce <- inception_3a/output_inception_3a/output_0_split_2
I0306 15:53:12.137384   531 net.cpp:409] inception_3b/5x5_reduce -> inception_3b/5x5_reduce
I0306 15:53:12.137763   531 net.cpp:144] Setting up inception_3b/5x5_reduce
I0306 15:53:12.137778   531 net.cpp:151] Top shape: 32 32 28 28 (802816)
I0306 15:53:12.137784   531 net.cpp:159] Memory required for data: 969802240
I0306 15:53:12.137791   531 layer_factory.hpp:77] Creating layer inception_3b/relu_5x5_reduce
I0306 15:53:12.137820   531 net.cpp:94] Creating Layer inception_3b/relu_5x5_reduce
I0306 15:53:12.137826   531 net.cpp:435] inception_3b/relu_5x5_reduce <- inception_3b/5x5_reduce
I0306 15:53:12.137836   531 net.cpp:396] inception_3b/relu_5x5_reduce -> inception_3b/5x5_reduce (in-place)
I0306 15:53:12.137846   531 net.cpp:144] Setting up inception_3b/relu_5x5_reduce
I0306 15:53:12.137854   531 net.cpp:151] Top shape: 32 32 28 28 (802816)
I0306 15:53:12.137859   531 net.cpp:159] Memory required for data: 973013504
I0306 15:53:12.137864   531 layer_factory.hpp:77] Creating layer inception_3b/5x5
I0306 15:53:12.137876   531 net.cpp:94] Creating Layer inception_3b/5x5
I0306 15:53:12.137883   531 net.cpp:435] inception_3b/5x5 <- inception_3b/5x5_reduce
I0306 15:53:12.137893   531 net.cpp:409] inception_3b/5x5 -> inception_3b/5x5
I0306 15:53:12.138986   531 net.cpp:144] Setting up inception_3b/5x5
I0306 15:53:12.139003   531 net.cpp:151] Top shape: 32 96 28 28 (2408448)
I0306 15:53:12.139009   531 net.cpp:159] Memory required for data: 982647296
I0306 15:53:12.139024   531 layer_factory.hpp:77] Creating layer inception_3b/relu_5x5
I0306 15:53:12.139034   531 net.cpp:94] Creating Layer inception_3b/relu_5x5
I0306 15:53:12.139040   531 net.cpp:435] inception_3b/relu_5x5 <- inception_3b/5x5
I0306 15:53:12.139050   531 net.cpp:396] inception_3b/relu_5x5 -> inception_3b/5x5 (in-place)
I0306 15:53:12.139084   531 net.cpp:144] Setting up inception_3b/relu_5x5
I0306 15:53:12.139096   531 net.cpp:151] Top shape: 32 96 28 28 (2408448)
I0306 15:53:12.139101   531 net.cpp:159] Memory required for data: 992281088
I0306 15:53:12.139107   531 layer_factory.hpp:77] Creating layer inception_3b/pool
I0306 15:53:12.139117   531 net.cpp:94] Creating Layer inception_3b/pool
I0306 15:53:12.139123   531 net.cpp:435] inception_3b/pool <- inception_3a/output_inception_3a/output_0_split_3
I0306 15:53:12.139133   531 net.cpp:409] inception_3b/pool -> inception_3b/pool
I0306 15:53:12.139186   531 net.cpp:144] Setting up inception_3b/pool
I0306 15:53:12.139196   531 net.cpp:151] Top shape: 32 256 28 28 (6422528)
I0306 15:53:12.139201   531 net.cpp:159] Memory required for data: 1017971200
I0306 15:53:12.139207   531 layer_factory.hpp:77] Creating layer inception_3b/pool_proj
I0306 15:53:12.139220   531 net.cpp:94] Creating Layer inception_3b/pool_proj
I0306 15:53:12.139226   531 net.cpp:435] inception_3b/pool_proj <- inception_3b/pool
I0306 15:53:12.139237   531 net.cpp:409] inception_3b/pool_proj -> inception_3b/pool_proj
I0306 15:53:12.139698   531 net.cpp:144] Setting up inception_3b/pool_proj
I0306 15:53:12.139711   531 net.cpp:151] Top shape: 32 64 28 28 (1605632)
I0306 15:53:12.139717   531 net.cpp:159] Memory required for data: 1024393728
I0306 15:53:12.139726   531 layer_factory.hpp:77] Creating layer inception_3b/relu_pool_proj
I0306 15:53:12.139735   531 net.cpp:94] Creating Layer inception_3b/relu_pool_proj
I0306 15:53:12.139741   531 net.cpp:435] inception_3b/relu_pool_proj <- inception_3b/pool_proj
I0306 15:53:12.139751   531 net.cpp:396] inception_3b/relu_pool_proj -> inception_3b/pool_proj (in-place)
I0306 15:53:12.139765   531 net.cpp:144] Setting up inception_3b/relu_pool_proj
I0306 15:53:12.139771   531 net.cpp:151] Top shape: 32 64 28 28 (1605632)
I0306 15:53:12.139776   531 net.cpp:159] Memory required for data: 1030816256
I0306 15:53:12.139782   531 layer_factory.hpp:77] Creating layer inception_3b/output
I0306 15:53:12.139792   531 net.cpp:94] Creating Layer inception_3b/output
I0306 15:53:12.139798   531 net.cpp:435] inception_3b/output <- inception_3b/1x1
I0306 15:53:12.139806   531 net.cpp:435] inception_3b/output <- inception_3b/3x3
I0306 15:53:12.139811   531 net.cpp:435] inception_3b/output <- inception_3b/5x5
I0306 15:53:12.139818   531 net.cpp:435] inception_3b/output <- inception_3b/pool_proj
I0306 15:53:12.139827   531 net.cpp:409] inception_3b/output -> inception_3b/output
I0306 15:53:12.139859   531 net.cpp:144] Setting up inception_3b/output
I0306 15:53:12.139868   531 net.cpp:151] Top shape: 32 480 28 28 (12042240)
I0306 15:53:12.139891   531 net.cpp:159] Memory required for data: 1078985216
I0306 15:53:12.139897   531 layer_factory.hpp:77] Creating layer pool3/3x3_s2
I0306 15:53:12.139907   531 net.cpp:94] Creating Layer pool3/3x3_s2
I0306 15:53:12.139914   531 net.cpp:435] pool3/3x3_s2 <- inception_3b/output
I0306 15:53:12.139922   531 net.cpp:409] pool3/3x3_s2 -> pool3/3x3_s2
I0306 15:53:12.139969   531 net.cpp:144] Setting up pool3/3x3_s2
I0306 15:53:12.139979   531 net.cpp:151] Top shape: 32 480 14 14 (3010560)
I0306 15:53:12.139984   531 net.cpp:159] Memory required for data: 1091027456
I0306 15:53:12.139991   531 layer_factory.hpp:77] Creating layer pool3/3x3_s2_pool3/3x3_s2_0_split
I0306 15:53:12.140000   531 net.cpp:94] Creating Layer pool3/3x3_s2_pool3/3x3_s2_0_split
I0306 15:53:12.140007   531 net.cpp:435] pool3/3x3_s2_pool3/3x3_s2_0_split <- pool3/3x3_s2
I0306 15:53:12.140015   531 net.cpp:409] pool3/3x3_s2_pool3/3x3_s2_0_split -> pool3/3x3_s2_pool3/3x3_s2_0_split_0
I0306 15:53:12.140027   531 net.cpp:409] pool3/3x3_s2_pool3/3x3_s2_0_split -> pool3/3x3_s2_pool3/3x3_s2_0_split_1
I0306 15:53:12.140035   531 net.cpp:409] pool3/3x3_s2_pool3/3x3_s2_0_split -> pool3/3x3_s2_pool3/3x3_s2_0_split_2
I0306 15:53:12.140045   531 net.cpp:409] pool3/3x3_s2_pool3/3x3_s2_0_split -> pool3/3x3_s2_pool3/3x3_s2_0_split_3
I0306 15:53:12.140120   531 net.cpp:144] Setting up pool3/3x3_s2_pool3/3x3_s2_0_split
I0306 15:53:12.140131   531 net.cpp:151] Top shape: 32 480 14 14 (3010560)
I0306 15:53:12.140138   531 net.cpp:151] Top shape: 32 480 14 14 (3010560)
I0306 15:53:12.140144   531 net.cpp:151] Top shape: 32 480 14 14 (3010560)
I0306 15:53:12.140151   531 net.cpp:151] Top shape: 32 480 14 14 (3010560)
I0306 15:53:12.140156   531 net.cpp:159] Memory required for data: 1139196416
I0306 15:53:12.140162   531 layer_factory.hpp:77] Creating layer inception_4a/1x1
I0306 15:53:12.140174   531 net.cpp:94] Creating Layer inception_4a/1x1
I0306 15:53:12.140182   531 net.cpp:435] inception_4a/1x1 <- pool3/3x3_s2_pool3/3x3_s2_0_split_0
I0306 15:53:12.140192   531 net.cpp:409] inception_4a/1x1 -> inception_4a/1x1
I0306 15:53:12.141430   531 net.cpp:144] Setting up inception_4a/1x1
I0306 15:53:12.141444   531 net.cpp:151] Top shape: 32 192 14 14 (1204224)
I0306 15:53:12.141450   531 net.cpp:159] Memory required for data: 1144013312
I0306 15:53:12.141459   531 layer_factory.hpp:77] Creating layer inception_4a/relu_1x1
I0306 15:53:12.141469   531 net.cpp:94] Creating Layer inception_4a/relu_1x1
I0306 15:53:12.141474   531 net.cpp:435] inception_4a/relu_1x1 <- inception_4a/1x1
I0306 15:53:12.141484   531 net.cpp:396] inception_4a/relu_1x1 -> inception_4a/1x1 (in-place)
I0306 15:53:12.141494   531 net.cpp:144] Setting up inception_4a/relu_1x1
I0306 15:53:12.141500   531 net.cpp:151] Top shape: 32 192 14 14 (1204224)
I0306 15:53:12.141505   531 net.cpp:159] Memory required for data: 1148830208
I0306 15:53:12.141511   531 layer_factory.hpp:77] Creating layer inception_4a/3x3_reduce
I0306 15:53:12.141523   531 net.cpp:94] Creating Layer inception_4a/3x3_reduce
I0306 15:53:12.141531   531 net.cpp:435] inception_4a/3x3_reduce <- pool3/3x3_s2_pool3/3x3_s2_0_split_1
I0306 15:53:12.141542   531 net.cpp:409] inception_4a/3x3_reduce -> inception_4a/3x3_reduce
I0306 15:53:12.144733   531 net.cpp:144] Setting up inception_4a/3x3_reduce
I0306 15:53:12.144753   531 net.cpp:151] Top shape: 32 96 14 14 (602112)
I0306 15:53:12.144759   531 net.cpp:159] Memory required for data: 1151238656
I0306 15:53:12.144778   531 layer_factory.hpp:77] Creating layer inception_4a/relu_3x3_reduce
I0306 15:53:12.144788   531 net.cpp:94] Creating Layer inception_4a/relu_3x3_reduce
I0306 15:53:12.144796   531 net.cpp:435] inception_4a/relu_3x3_reduce <- inception_4a/3x3_reduce
I0306 15:53:12.144806   531 net.cpp:396] inception_4a/relu_3x3_reduce -> inception_4a/3x3_reduce (in-place)
I0306 15:53:12.144819   531 net.cpp:144] Setting up inception_4a/relu_3x3_reduce
I0306 15:53:12.144829   531 net.cpp:151] Top shape: 32 96 14 14 (602112)
I0306 15:53:12.144836   531 net.cpp:159] Memory required for data: 1153647104
I0306 15:53:12.144870   531 layer_factory.hpp:77] Creating layer inception_4a/3x3
I0306 15:53:12.144886   531 net.cpp:94] Creating Layer inception_4a/3x3
I0306 15:53:12.144891   531 net.cpp:435] inception_4a/3x3 <- inception_4a/3x3_reduce
I0306 15:53:12.144902   531 net.cpp:409] inception_4a/3x3 -> inception_4a/3x3
I0306 15:53:12.147058   531 net.cpp:144] Setting up inception_4a/3x3
I0306 15:53:12.147106   531 net.cpp:151] Top shape: 32 208 14 14 (1304576)
I0306 15:53:12.147114   531 net.cpp:159] Memory required for data: 1158865408
I0306 15:53:12.147136   531 layer_factory.hpp:77] Creating layer inception_4a/relu_3x3
I0306 15:53:12.147150   531 net.cpp:94] Creating Layer inception_4a/relu_3x3
I0306 15:53:12.147167   531 net.cpp:435] inception_4a/relu_3x3 <- inception_4a/3x3
I0306 15:53:12.147181   531 net.cpp:396] inception_4a/relu_3x3 -> inception_4a/3x3 (in-place)
I0306 15:53:12.147197   531 net.cpp:144] Setting up inception_4a/relu_3x3
I0306 15:53:12.147210   531 net.cpp:151] Top shape: 32 208 14 14 (1304576)
I0306 15:53:12.147217   531 net.cpp:159] Memory required for data: 1164083712
I0306 15:53:12.147226   531 layer_factory.hpp:77] Creating layer inception_4a/5x5_reduce
I0306 15:53:12.147240   531 net.cpp:94] Creating Layer inception_4a/5x5_reduce
I0306 15:53:12.147248   531 net.cpp:435] inception_4a/5x5_reduce <- pool3/3x3_s2_pool3/3x3_s2_0_split_2
I0306 15:53:12.147260   531 net.cpp:409] inception_4a/5x5_reduce -> inception_4a/5x5_reduce
I0306 15:53:12.147747   531 net.cpp:144] Setting up inception_4a/5x5_reduce
I0306 15:53:12.147763   531 net.cpp:151] Top shape: 32 16 14 14 (100352)
I0306 15:53:12.147769   531 net.cpp:159] Memory required for data: 1164485120
I0306 15:53:12.147779   531 layer_factory.hpp:77] Creating layer inception_4a/relu_5x5_reduce
I0306 15:53:12.147789   531 net.cpp:94] Creating Layer inception_4a/relu_5x5_reduce
I0306 15:53:12.147795   531 net.cpp:435] inception_4a/relu_5x5_reduce <- inception_4a/5x5_reduce
I0306 15:53:12.147805   531 net.cpp:396] inception_4a/relu_5x5_reduce -> inception_4a/5x5_reduce (in-place)
I0306 15:53:12.147815   531 net.cpp:144] Setting up inception_4a/relu_5x5_reduce
I0306 15:53:12.147823   531 net.cpp:151] Top shape: 32 16 14 14 (100352)
I0306 15:53:12.147828   531 net.cpp:159] Memory required for data: 1164886528
I0306 15:53:12.147833   531 layer_factory.hpp:77] Creating layer inception_4a/5x5
I0306 15:53:12.147846   531 net.cpp:94] Creating Layer inception_4a/5x5
I0306 15:53:12.147852   531 net.cpp:435] inception_4a/5x5 <- inception_4a/5x5_reduce
I0306 15:53:12.147862   531 net.cpp:409] inception_4a/5x5 -> inception_4a/5x5
I0306 15:53:12.148363   531 net.cpp:144] Setting up inception_4a/5x5
I0306 15:53:12.148378   531 net.cpp:151] Top shape: 32 48 14 14 (301056)
I0306 15:53:12.148383   531 net.cpp:159] Memory required for data: 1166090752
I0306 15:53:12.148392   531 layer_factory.hpp:77] Creating layer inception_4a/relu_5x5
I0306 15:53:12.148402   531 net.cpp:94] Creating Layer inception_4a/relu_5x5
I0306 15:53:12.148411   531 net.cpp:435] inception_4a/relu_5x5 <- inception_4a/5x5
I0306 15:53:12.148419   531 net.cpp:396] inception_4a/relu_5x5 -> inception_4a/5x5 (in-place)
I0306 15:53:12.148429   531 net.cpp:144] Setting up inception_4a/relu_5x5
I0306 15:53:12.148437   531 net.cpp:151] Top shape: 32 48 14 14 (301056)
I0306 15:53:12.148442   531 net.cpp:159] Memory required for data: 1167294976
I0306 15:53:12.148448   531 layer_factory.hpp:77] Creating layer inception_4a/pool
I0306 15:53:12.148458   531 net.cpp:94] Creating Layer inception_4a/pool
I0306 15:53:12.148463   531 net.cpp:435] inception_4a/pool <- pool3/3x3_s2_pool3/3x3_s2_0_split_3
I0306 15:53:12.148473   531 net.cpp:409] inception_4a/pool -> inception_4a/pool
I0306 15:53:12.148522   531 net.cpp:144] Setting up inception_4a/pool
I0306 15:53:12.148531   531 net.cpp:151] Top shape: 32 480 14 14 (3010560)
I0306 15:53:12.148536   531 net.cpp:159] Memory required for data: 1179337216
I0306 15:53:12.148542   531 layer_factory.hpp:77] Creating layer inception_4a/pool_proj
I0306 15:53:12.148573   531 net.cpp:94] Creating Layer inception_4a/pool_proj
I0306 15:53:12.148591   531 net.cpp:435] inception_4a/pool_proj <- inception_4a/pool
I0306 15:53:12.148602   531 net.cpp:409] inception_4a/pool_proj -> inception_4a/pool_proj
I0306 15:53:12.150185   531 net.cpp:144] Setting up inception_4a/pool_proj
I0306 15:53:12.150205   531 net.cpp:151] Top shape: 32 64 14 14 (401408)
I0306 15:53:12.150211   531 net.cpp:159] Memory required for data: 1180942848
I0306 15:53:12.150221   531 layer_factory.hpp:77] Creating layer inception_4a/relu_pool_proj
I0306 15:53:12.150231   531 net.cpp:94] Creating Layer inception_4a/relu_pool_proj
I0306 15:53:12.150238   531 net.cpp:435] inception_4a/relu_pool_proj <- inception_4a/pool_proj
I0306 15:53:12.150247   531 net.cpp:396] inception_4a/relu_pool_proj -> inception_4a/pool_proj (in-place)
I0306 15:53:12.150259   531 net.cpp:144] Setting up inception_4a/relu_pool_proj
I0306 15:53:12.150267   531 net.cpp:151] Top shape: 32 64 14 14 (401408)
I0306 15:53:12.150272   531 net.cpp:159] Memory required for data: 1182548480
I0306 15:53:12.150277   531 layer_factory.hpp:77] Creating layer inception_4a/output
I0306 15:53:12.150296   531 net.cpp:94] Creating Layer inception_4a/output
I0306 15:53:12.150302   531 net.cpp:435] inception_4a/output <- inception_4a/1x1
I0306 15:53:12.150310   531 net.cpp:435] inception_4a/output <- inception_4a/3x3
I0306 15:53:12.150316   531 net.cpp:435] inception_4a/output <- inception_4a/5x5
I0306 15:53:12.150322   531 net.cpp:435] inception_4a/output <- inception_4a/pool_proj
I0306 15:53:12.150331   531 net.cpp:409] inception_4a/output -> inception_4a/output
I0306 15:53:12.150367   531 net.cpp:144] Setting up inception_4a/output
I0306 15:53:12.150377   531 net.cpp:151] Top shape: 32 512 14 14 (3211264)
I0306 15:53:12.150382   531 net.cpp:159] Memory required for data: 1195393536
I0306 15:53:12.150386   531 layer_factory.hpp:77] Creating layer inception_4a/output_inception_4a/output_0_split
I0306 15:53:12.150398   531 net.cpp:94] Creating Layer inception_4a/output_inception_4a/output_0_split
I0306 15:53:12.150403   531 net.cpp:435] inception_4a/output_inception_4a/output_0_split <- inception_4a/output
I0306 15:53:12.150413   531 net.cpp:409] inception_4a/output_inception_4a/output_0_split -> inception_4a/output_inception_4a/output_0_split_0
I0306 15:53:12.150425   531 net.cpp:409] inception_4a/output_inception_4a/output_0_split -> inception_4a/output_inception_4a/output_0_split_1
I0306 15:53:12.150435   531 net.cpp:409] inception_4a/output_inception_4a/output_0_split -> inception_4a/output_inception_4a/output_0_split_2
I0306 15:53:12.150446   531 net.cpp:409] inception_4a/output_inception_4a/output_0_split -> inception_4a/output_inception_4a/output_0_split_3
I0306 15:53:12.150456   531 net.cpp:409] inception_4a/output_inception_4a/output_0_split -> inception_4a/output_inception_4a/output_0_split_4
I0306 15:53:12.150547   531 net.cpp:144] Setting up inception_4a/output_inception_4a/output_0_split
I0306 15:53:12.150559   531 net.cpp:151] Top shape: 32 512 14 14 (3211264)
I0306 15:53:12.150568   531 net.cpp:151] Top shape: 32 512 14 14 (3211264)
I0306 15:53:12.150574   531 net.cpp:151] Top shape: 32 512 14 14 (3211264)
I0306 15:53:12.150580   531 net.cpp:151] Top shape: 32 512 14 14 (3211264)
I0306 15:53:12.150588   531 net.cpp:151] Top shape: 32 512 14 14 (3211264)
I0306 15:53:12.150593   531 net.cpp:159] Memory required for data: 1259618816
I0306 15:53:12.150597   531 layer_factory.hpp:77] Creating layer loss1/ave_pool
I0306 15:53:12.150617   531 net.cpp:94] Creating Layer loss1/ave_pool
I0306 15:53:12.150624   531 net.cpp:435] loss1/ave_pool <- inception_4a/output_inception_4a/output_0_split_0
I0306 15:53:12.150642   531 net.cpp:409] loss1/ave_pool -> loss1/ave_pool
I0306 15:53:12.150691   531 net.cpp:144] Setting up loss1/ave_pool
I0306 15:53:12.150701   531 net.cpp:151] Top shape: 32 512 4 4 (262144)
I0306 15:53:12.150707   531 net.cpp:159] Memory required for data: 1260667392
I0306 15:53:12.150712   531 layer_factory.hpp:77] Creating layer loss1/conv
I0306 15:53:12.150743   531 net.cpp:94] Creating Layer loss1/conv
I0306 15:53:12.150751   531 net.cpp:435] loss1/conv <- loss1/ave_pool
I0306 15:53:12.150763   531 net.cpp:409] loss1/conv -> loss1/conv
I0306 15:53:12.151800   531 net.cpp:144] Setting up loss1/conv
I0306 15:53:12.151818   531 net.cpp:151] Top shape: 32 128 4 4 (65536)
I0306 15:53:12.151823   531 net.cpp:159] Memory required for data: 1260929536
I0306 15:53:12.151834   531 layer_factory.hpp:77] Creating layer loss1/relu_conv
I0306 15:53:12.151842   531 net.cpp:94] Creating Layer loss1/relu_conv
I0306 15:53:12.151849   531 net.cpp:435] loss1/relu_conv <- loss1/conv
I0306 15:53:12.151857   531 net.cpp:396] loss1/relu_conv -> loss1/conv (in-place)
I0306 15:53:12.151868   531 net.cpp:144] Setting up loss1/relu_conv
I0306 15:53:12.151876   531 net.cpp:151] Top shape: 32 128 4 4 (65536)
I0306 15:53:12.151881   531 net.cpp:159] Memory required for data: 1261191680
I0306 15:53:12.151886   531 layer_factory.hpp:77] Creating layer loss1/fc
I0306 15:53:12.151899   531 net.cpp:94] Creating Layer loss1/fc
I0306 15:53:12.151906   531 net.cpp:435] loss1/fc <- loss1/conv
I0306 15:53:12.151914   531 net.cpp:409] loss1/fc -> loss1/fc
I0306 15:53:12.179539   531 net.cpp:144] Setting up loss1/fc
I0306 15:53:12.179575   531 net.cpp:151] Top shape: 32 1024 (32768)
I0306 15:53:12.179581   531 net.cpp:159] Memory required for data: 1261322752
I0306 15:53:12.179595   531 layer_factory.hpp:77] Creating layer loss1/relu_fc
I0306 15:53:12.179618   531 net.cpp:94] Creating Layer loss1/relu_fc
I0306 15:53:12.179627   531 net.cpp:435] loss1/relu_fc <- loss1/fc
I0306 15:53:12.179638   531 net.cpp:396] loss1/relu_fc -> loss1/fc (in-place)
I0306 15:53:12.179656   531 net.cpp:144] Setting up loss1/relu_fc
I0306 15:53:12.179664   531 net.cpp:151] Top shape: 32 1024 (32768)
I0306 15:53:12.179669   531 net.cpp:159] Memory required for data: 1261453824
I0306 15:53:12.179674   531 layer_factory.hpp:77] Creating layer loss1/drop_fc
I0306 15:53:12.179706   531 net.cpp:94] Creating Layer loss1/drop_fc
I0306 15:53:12.179713   531 net.cpp:435] loss1/drop_fc <- loss1/fc
I0306 15:53:12.179720   531 net.cpp:396] loss1/drop_fc -> loss1/fc (in-place)
I0306 15:53:12.179762   531 net.cpp:144] Setting up loss1/drop_fc
I0306 15:53:12.179771   531 net.cpp:151] Top shape: 32 1024 (32768)
I0306 15:53:12.179776   531 net.cpp:159] Memory required for data: 1261584896
I0306 15:53:12.179783   531 layer_factory.hpp:77] Creating layer loss1/classifier
I0306 15:53:12.179795   531 net.cpp:94] Creating Layer loss1/classifier
I0306 15:53:12.179800   531 net.cpp:435] loss1/classifier <- loss1/fc
I0306 15:53:12.179811   531 net.cpp:409] loss1/classifier -> loss1/classifier
I0306 15:53:12.179972   531 net.cpp:144] Setting up loss1/classifier
I0306 15:53:12.179983   531 net.cpp:151] Top shape: 32 3 (96)
I0306 15:53:12.179988   531 net.cpp:159] Memory required for data: 1261585280
I0306 15:53:12.179998   531 layer_factory.hpp:77] Creating layer loss1/loss
I0306 15:53:12.180009   531 net.cpp:94] Creating Layer loss1/loss
I0306 15:53:12.180016   531 net.cpp:435] loss1/loss <- loss1/classifier
I0306 15:53:12.180023   531 net.cpp:435] loss1/loss <- label_train-data_1_split_0
I0306 15:53:12.180032   531 net.cpp:409] loss1/loss -> loss1/loss
I0306 15:53:12.180047   531 layer_factory.hpp:77] Creating layer loss1/loss
I0306 15:53:12.180169   531 net.cpp:144] Setting up loss1/loss
I0306 15:53:12.180181   531 net.cpp:151] Top shape: (1)
I0306 15:53:12.180186   531 net.cpp:154]     with loss weight 0.3
I0306 15:53:12.180224   531 net.cpp:159] Memory required for data: 1261585284
I0306 15:53:12.180231   531 layer_factory.hpp:77] Creating layer inception_4b/1x1
I0306 15:53:12.180248   531 net.cpp:94] Creating Layer inception_4b/1x1
I0306 15:53:12.180254   531 net.cpp:435] inception_4b/1x1 <- inception_4a/output_inception_4a/output_0_split_1
I0306 15:53:12.180265   531 net.cpp:409] inception_4b/1x1 -> inception_4b/1x1
I0306 15:53:12.181483   531 net.cpp:144] Setting up inception_4b/1x1
I0306 15:53:12.181500   531 net.cpp:151] Top shape: 32 160 14 14 (1003520)
I0306 15:53:12.181530   531 net.cpp:159] Memory required for data: 1265599364
I0306 15:53:12.181541   531 layer_factory.hpp:77] Creating layer inception_4b/relu_1x1
I0306 15:53:12.181551   531 net.cpp:94] Creating Layer inception_4b/relu_1x1
I0306 15:53:12.181557   531 net.cpp:435] inception_4b/relu_1x1 <- inception_4b/1x1
I0306 15:53:12.181566   531 net.cpp:396] inception_4b/relu_1x1 -> inception_4b/1x1 (in-place)
I0306 15:53:12.181577   531 net.cpp:144] Setting up inception_4b/relu_1x1
I0306 15:53:12.181586   531 net.cpp:151] Top shape: 32 160 14 14 (1003520)
I0306 15:53:12.181591   531 net.cpp:159] Memory required for data: 1269613444
I0306 15:53:12.181596   531 layer_factory.hpp:77] Creating layer inception_4b/3x3_reduce
I0306 15:53:12.181625   531 net.cpp:94] Creating Layer inception_4b/3x3_reduce
I0306 15:53:12.181632   531 net.cpp:435] inception_4b/3x3_reduce <- inception_4a/output_inception_4a/output_0_split_2
I0306 15:53:12.181643   531 net.cpp:409] inception_4b/3x3_reduce -> inception_4b/3x3_reduce
I0306 15:53:12.182595   531 net.cpp:144] Setting up inception_4b/3x3_reduce
I0306 15:53:12.182616   531 net.cpp:151] Top shape: 32 112 14 14 (702464)
I0306 15:53:12.182623   531 net.cpp:159] Memory required for data: 1272423300
I0306 15:53:12.182632   531 layer_factory.hpp:77] Creating layer inception_4b/relu_3x3_reduce
I0306 15:53:12.182641   531 net.cpp:94] Creating Layer inception_4b/relu_3x3_reduce
I0306 15:53:12.182647   531 net.cpp:435] inception_4b/relu_3x3_reduce <- inception_4b/3x3_reduce
I0306 15:53:12.182657   531 net.cpp:396] inception_4b/relu_3x3_reduce -> inception_4b/3x3_reduce (in-place)
I0306 15:53:12.182667   531 net.cpp:144] Setting up inception_4b/relu_3x3_reduce
I0306 15:53:12.182674   531 net.cpp:151] Top shape: 32 112 14 14 (702464)
I0306 15:53:12.182679   531 net.cpp:159] Memory required for data: 1275233156
I0306 15:53:12.182684   531 layer_factory.hpp:77] Creating layer inception_4b/3x3
I0306 15:53:12.182698   531 net.cpp:94] Creating Layer inception_4b/3x3
I0306 15:53:12.182703   531 net.cpp:435] inception_4b/3x3 <- inception_4b/3x3_reduce
I0306 15:53:12.182714   531 net.cpp:409] inception_4b/3x3 -> inception_4b/3x3
I0306 15:53:12.186362   531 net.cpp:144] Setting up inception_4b/3x3
I0306 15:53:12.186383   531 net.cpp:151] Top shape: 32 224 14 14 (1404928)
I0306 15:53:12.186388   531 net.cpp:159] Memory required for data: 1280852868
I0306 15:53:12.186398   531 layer_factory.hpp:77] Creating layer inception_4b/relu_3x3
I0306 15:53:12.186409   531 net.cpp:94] Creating Layer inception_4b/relu_3x3
I0306 15:53:12.186415   531 net.cpp:435] inception_4b/relu_3x3 <- inception_4b/3x3
I0306 15:53:12.186425   531 net.cpp:396] inception_4b/relu_3x3 -> inception_4b/3x3 (in-place)
I0306 15:53:12.186437   531 net.cpp:144] Setting up inception_4b/relu_3x3
I0306 15:53:12.186445   531 net.cpp:151] Top shape: 32 224 14 14 (1404928)
I0306 15:53:12.186450   531 net.cpp:159] Memory required for data: 1286472580
I0306 15:53:12.186456   531 layer_factory.hpp:77] Creating layer inception_4b/5x5_reduce
I0306 15:53:12.186470   531 net.cpp:94] Creating Layer inception_4b/5x5_reduce
I0306 15:53:12.186475   531 net.cpp:435] inception_4b/5x5_reduce <- inception_4a/output_inception_4a/output_0_split_3
I0306 15:53:12.186481   531 net.cpp:409] inception_4b/5x5_reduce -> inception_4b/5x5_reduce
I0306 15:53:12.186792   531 net.cpp:144] Setting up inception_4b/5x5_reduce
I0306 15:53:12.186802   531 net.cpp:151] Top shape: 32 24 14 14 (150528)
I0306 15:53:12.186805   531 net.cpp:159] Memory required for data: 1287074692
I0306 15:53:12.186810   531 layer_factory.hpp:77] Creating layer inception_4b/relu_5x5_reduce
I0306 15:53:12.186817   531 net.cpp:94] Creating Layer inception_4b/relu_5x5_reduce
I0306 15:53:12.186821   531 net.cpp:435] inception_4b/relu_5x5_reduce <- inception_4b/5x5_reduce
I0306 15:53:12.186827   531 net.cpp:396] inception_4b/relu_5x5_reduce -> inception_4b/5x5_reduce (in-place)
I0306 15:53:12.186834   531 net.cpp:144] Setting up inception_4b/relu_5x5_reduce
I0306 15:53:12.186856   531 net.cpp:151] Top shape: 32 24 14 14 (150528)
I0306 15:53:12.186859   531 net.cpp:159] Memory required for data: 1287676804
I0306 15:53:12.186863   531 layer_factory.hpp:77] Creating layer inception_4b/5x5
I0306 15:53:12.186872   531 net.cpp:94] Creating Layer inception_4b/5x5
I0306 15:53:12.186877   531 net.cpp:435] inception_4b/5x5 <- inception_4b/5x5_reduce
I0306 15:53:12.186883   531 net.cpp:409] inception_4b/5x5 -> inception_4b/5x5
I0306 15:53:12.188081   531 net.cpp:144] Setting up inception_4b/5x5
I0306 15:53:12.188097   531 net.cpp:151] Top shape: 32 64 14 14 (401408)
I0306 15:53:12.188100   531 net.cpp:159] Memory required for data: 1289282436
I0306 15:53:12.188107   531 layer_factory.hpp:77] Creating layer inception_4b/relu_5x5
I0306 15:53:12.188114   531 net.cpp:94] Creating Layer inception_4b/relu_5x5
I0306 15:53:12.188118   531 net.cpp:435] inception_4b/relu_5x5 <- inception_4b/5x5
I0306 15:53:12.188124   531 net.cpp:396] inception_4b/relu_5x5 -> inception_4b/5x5 (in-place)
I0306 15:53:12.188133   531 net.cpp:144] Setting up inception_4b/relu_5x5
I0306 15:53:12.188138   531 net.cpp:151] Top shape: 32 64 14 14 (401408)
I0306 15:53:12.188140   531 net.cpp:159] Memory required for data: 1290888068
I0306 15:53:12.188143   531 layer_factory.hpp:77] Creating layer inception_4b/pool
I0306 15:53:12.188150   531 net.cpp:94] Creating Layer inception_4b/pool
I0306 15:53:12.188154   531 net.cpp:435] inception_4b/pool <- inception_4a/output_inception_4a/output_0_split_4
I0306 15:53:12.188160   531 net.cpp:409] inception_4b/pool -> inception_4b/pool
I0306 15:53:12.188210   531 net.cpp:144] Setting up inception_4b/pool
I0306 15:53:12.188217   531 net.cpp:151] Top shape: 32 512 14 14 (3211264)
I0306 15:53:12.188220   531 net.cpp:159] Memory required for data: 1303733124
I0306 15:53:12.188225   531 layer_factory.hpp:77] Creating layer inception_4b/pool_proj
I0306 15:53:12.188233   531 net.cpp:94] Creating Layer inception_4b/pool_proj
I0306 15:53:12.188237   531 net.cpp:435] inception_4b/pool_proj <- inception_4b/pool
I0306 15:53:12.188244   531 net.cpp:409] inception_4b/pool_proj -> inception_4b/pool_proj
I0306 15:53:12.188659   531 net.cpp:144] Setting up inception_4b/pool_proj
I0306 15:53:12.188669   531 net.cpp:151] Top shape: 32 64 14 14 (401408)
I0306 15:53:12.188673   531 net.cpp:159] Memory required for data: 1305338756
I0306 15:53:12.188678   531 layer_factory.hpp:77] Creating layer inception_4b/relu_pool_proj
I0306 15:53:12.188684   531 net.cpp:94] Creating Layer inception_4b/relu_pool_proj
I0306 15:53:12.188688   531 net.cpp:435] inception_4b/relu_pool_proj <- inception_4b/pool_proj
I0306 15:53:12.188694   531 net.cpp:396] inception_4b/relu_pool_proj -> inception_4b/pool_proj (in-place)
I0306 15:53:12.188706   531 net.cpp:144] Setting up inception_4b/relu_pool_proj
I0306 15:53:12.188711   531 net.cpp:151] Top shape: 32 64 14 14 (401408)
I0306 15:53:12.188716   531 net.cpp:159] Memory required for data: 1306944388
I0306 15:53:12.188719   531 layer_factory.hpp:77] Creating layer inception_4b/output
I0306 15:53:12.188726   531 net.cpp:94] Creating Layer inception_4b/output
I0306 15:53:12.188730   531 net.cpp:435] inception_4b/output <- inception_4b/1x1
I0306 15:53:12.188735   531 net.cpp:435] inception_4b/output <- inception_4b/3x3
I0306 15:53:12.188738   531 net.cpp:435] inception_4b/output <- inception_4b/5x5
I0306 15:53:12.188742   531 net.cpp:435] inception_4b/output <- inception_4b/pool_proj
I0306 15:53:12.188748   531 net.cpp:409] inception_4b/output -> inception_4b/output
I0306 15:53:12.188773   531 net.cpp:144] Setting up inception_4b/output
I0306 15:53:12.188779   531 net.cpp:151] Top shape: 32 512 14 14 (3211264)
I0306 15:53:12.188782   531 net.cpp:159] Memory required for data: 1319789444
I0306 15:53:12.188786   531 layer_factory.hpp:77] Creating layer inception_4b/output_inception_4b/output_0_split
I0306 15:53:12.188792   531 net.cpp:94] Creating Layer inception_4b/output_inception_4b/output_0_split
I0306 15:53:12.188812   531 net.cpp:435] inception_4b/output_inception_4b/output_0_split <- inception_4b/output
I0306 15:53:12.188834   531 net.cpp:409] inception_4b/output_inception_4b/output_0_split -> inception_4b/output_inception_4b/output_0_split_0
I0306 15:53:12.188843   531 net.cpp:409] inception_4b/output_inception_4b/output_0_split -> inception_4b/output_inception_4b/output_0_split_1
I0306 15:53:12.188849   531 net.cpp:409] inception_4b/output_inception_4b/output_0_split -> inception_4b/output_inception_4b/output_0_split_2
I0306 15:53:12.188870   531 net.cpp:409] inception_4b/output_inception_4b/output_0_split -> inception_4b/output_inception_4b/output_0_split_3
I0306 15:53:12.188921   531 net.cpp:144] Setting up inception_4b/output_inception_4b/output_0_split
I0306 15:53:12.188926   531 net.cpp:151] Top shape: 32 512 14 14 (3211264)
I0306 15:53:12.188930   531 net.cpp:151] Top shape: 32 512 14 14 (3211264)
I0306 15:53:12.188935   531 net.cpp:151] Top shape: 32 512 14 14 (3211264)
I0306 15:53:12.188938   531 net.cpp:151] Top shape: 32 512 14 14 (3211264)
I0306 15:53:12.188941   531 net.cpp:159] Memory required for data: 1371169668
I0306 15:53:12.188944   531 layer_factory.hpp:77] Creating layer inception_4c/1x1
I0306 15:53:12.188952   531 net.cpp:94] Creating Layer inception_4c/1x1
I0306 15:53:12.188963   531 net.cpp:435] inception_4c/1x1 <- inception_4b/output_inception_4b/output_0_split_0
I0306 15:53:12.188987   531 net.cpp:409] inception_4c/1x1 -> inception_4c/1x1
I0306 15:53:12.189605   531 net.cpp:144] Setting up inception_4c/1x1
I0306 15:53:12.189621   531 net.cpp:151] Top shape: 32 128 14 14 (802816)
I0306 15:53:12.189625   531 net.cpp:159] Memory required for data: 1374380932
I0306 15:53:12.189631   531 layer_factory.hpp:77] Creating layer inception_4c/relu_1x1
I0306 15:53:12.189637   531 net.cpp:94] Creating Layer inception_4c/relu_1x1
I0306 15:53:12.189640   531 net.cpp:435] inception_4c/relu_1x1 <- inception_4c/1x1
I0306 15:53:12.189646   531 net.cpp:396] inception_4c/relu_1x1 -> inception_4c/1x1 (in-place)
I0306 15:53:12.189654   531 net.cpp:144] Setting up inception_4c/relu_1x1
I0306 15:53:12.189658   531 net.cpp:151] Top shape: 32 128 14 14 (802816)
I0306 15:53:12.189661   531 net.cpp:159] Memory required for data: 1377592196
I0306 15:53:12.189666   531 layer_factory.hpp:77] Creating layer inception_4c/3x3_reduce
I0306 15:53:12.189673   531 net.cpp:94] Creating Layer inception_4c/3x3_reduce
I0306 15:53:12.189677   531 net.cpp:435] inception_4c/3x3_reduce <- inception_4b/output_inception_4b/output_0_split_1
I0306 15:53:12.189684   531 net.cpp:409] inception_4c/3x3_reduce -> inception_4c/3x3_reduce
I0306 15:53:12.190400   531 net.cpp:144] Setting up inception_4c/3x3_reduce
I0306 15:53:12.190416   531 net.cpp:151] Top shape: 32 128 14 14 (802816)
I0306 15:53:12.190423   531 net.cpp:159] Memory required for data: 1380803460
I0306 15:53:12.190431   531 layer_factory.hpp:77] Creating layer inception_4c/relu_3x3_reduce
I0306 15:53:12.190441   531 net.cpp:94] Creating Layer inception_4c/relu_3x3_reduce
I0306 15:53:12.190448   531 net.cpp:435] inception_4c/relu_3x3_reduce <- inception_4c/3x3_reduce
I0306 15:53:12.190457   531 net.cpp:396] inception_4c/relu_3x3_reduce -> inception_4c/3x3_reduce (in-place)
I0306 15:53:12.190467   531 net.cpp:144] Setting up inception_4c/relu_3x3_reduce
I0306 15:53:12.190474   531 net.cpp:151] Top shape: 32 128 14 14 (802816)
I0306 15:53:12.190479   531 net.cpp:159] Memory required for data: 1384014724
I0306 15:53:12.190491   531 layer_factory.hpp:77] Creating layer inception_4c/3x3
I0306 15:53:12.190510   531 net.cpp:94] Creating Layer inception_4c/3x3
I0306 15:53:12.190516   531 net.cpp:435] inception_4c/3x3 <- inception_4c/3x3_reduce
I0306 15:53:12.190526   531 net.cpp:409] inception_4c/3x3 -> inception_4c/3x3
I0306 15:53:12.195399   531 net.cpp:144] Setting up inception_4c/3x3
I0306 15:53:12.195430   531 net.cpp:151] Top shape: 32 256 14 14 (1605632)
I0306 15:53:12.195436   531 net.cpp:159] Memory required for data: 1390437252
I0306 15:53:12.195459   531 layer_factory.hpp:77] Creating layer inception_4c/relu_3x3
I0306 15:53:12.195477   531 net.cpp:94] Creating Layer inception_4c/relu_3x3
I0306 15:53:12.195502   531 net.cpp:435] inception_4c/relu_3x3 <- inception_4c/3x3
I0306 15:53:12.195513   531 net.cpp:396] inception_4c/relu_3x3 -> inception_4c/3x3 (in-place)
I0306 15:53:12.195525   531 net.cpp:144] Setting up inception_4c/relu_3x3
I0306 15:53:12.195534   531 net.cpp:151] Top shape: 32 256 14 14 (1605632)
I0306 15:53:12.195539   531 net.cpp:159] Memory required for data: 1396859780
I0306 15:53:12.195544   531 layer_factory.hpp:77] Creating layer inception_4c/5x5_reduce
I0306 15:53:12.195557   531 net.cpp:94] Creating Layer inception_4c/5x5_reduce
I0306 15:53:12.195564   531 net.cpp:435] inception_4c/5x5_reduce <- inception_4b/output_inception_4b/output_0_split_2
I0306 15:53:12.195574   531 net.cpp:409] inception_4c/5x5_reduce -> inception_4c/5x5_reduce
I0306 15:53:12.196067   531 net.cpp:144] Setting up inception_4c/5x5_reduce
I0306 15:53:12.196080   531 net.cpp:151] Top shape: 32 24 14 14 (150528)
I0306 15:53:12.196085   531 net.cpp:159] Memory required for data: 1397461892
I0306 15:53:12.196094   531 layer_factory.hpp:77] Creating layer inception_4c/relu_5x5_reduce
I0306 15:53:12.196105   531 net.cpp:94] Creating Layer inception_4c/relu_5x5_reduce
I0306 15:53:12.196110   531 net.cpp:435] inception_4c/relu_5x5_reduce <- inception_4c/5x5_reduce
I0306 15:53:12.196120   531 net.cpp:396] inception_4c/relu_5x5_reduce -> inception_4c/5x5_reduce (in-place)
I0306 15:53:12.196130   531 net.cpp:144] Setting up inception_4c/relu_5x5_reduce
I0306 15:53:12.196138   531 net.cpp:151] Top shape: 32 24 14 14 (150528)
I0306 15:53:12.196142   531 net.cpp:159] Memory required for data: 1398064004
I0306 15:53:12.196147   531 layer_factory.hpp:77] Creating layer inception_4c/5x5
I0306 15:53:12.196159   531 net.cpp:94] Creating Layer inception_4c/5x5
I0306 15:53:12.196166   531 net.cpp:435] inception_4c/5x5 <- inception_4c/5x5_reduce
I0306 15:53:12.196175   531 net.cpp:409] inception_4c/5x5 -> inception_4c/5x5
I0306 15:53:12.198680   531 net.cpp:144] Setting up inception_4c/5x5
I0306 15:53:12.198701   531 net.cpp:151] Top shape: 32 64 14 14 (401408)
I0306 15:53:12.198707   531 net.cpp:159] Memory required for data: 1399669636
I0306 15:53:12.198717   531 layer_factory.hpp:77] Creating layer inception_4c/relu_5x5
I0306 15:53:12.198727   531 net.cpp:94] Creating Layer inception_4c/relu_5x5
I0306 15:53:12.198734   531 net.cpp:435] inception_4c/relu_5x5 <- inception_4c/5x5
I0306 15:53:12.198745   531 net.cpp:396] inception_4c/relu_5x5 -> inception_4c/5x5 (in-place)
I0306 15:53:12.198756   531 net.cpp:144] Setting up inception_4c/relu_5x5
I0306 15:53:12.198765   531 net.cpp:151] Top shape: 32 64 14 14 (401408)
I0306 15:53:12.198770   531 net.cpp:159] Memory required for data: 1401275268
I0306 15:53:12.198774   531 layer_factory.hpp:77] Creating layer inception_4c/pool
I0306 15:53:12.198786   531 net.cpp:94] Creating Layer inception_4c/pool
I0306 15:53:12.198791   531 net.cpp:435] inception_4c/pool <- inception_4b/output_inception_4b/output_0_split_3
I0306 15:53:12.198801   531 net.cpp:409] inception_4c/pool -> inception_4c/pool
I0306 15:53:12.198855   531 net.cpp:144] Setting up inception_4c/pool
I0306 15:53:12.198865   531 net.cpp:151] Top shape: 32 512 14 14 (3211264)
I0306 15:53:12.198871   531 net.cpp:159] Memory required for data: 1414120324
I0306 15:53:12.198876   531 layer_factory.hpp:77] Creating layer inception_4c/pool_proj
I0306 15:53:12.198889   531 net.cpp:94] Creating Layer inception_4c/pool_proj
I0306 15:53:12.198895   531 net.cpp:435] inception_4c/pool_proj <- inception_4c/pool
I0306 15:53:12.198906   531 net.cpp:409] inception_4c/pool_proj -> inception_4c/pool_proj
I0306 15:53:12.199585   531 net.cpp:144] Setting up inception_4c/pool_proj
I0306 15:53:12.199604   531 net.cpp:151] Top shape: 32 64 14 14 (401408)
I0306 15:53:12.199618   531 net.cpp:159] Memory required for data: 1415725956
I0306 15:53:12.199628   531 layer_factory.hpp:77] Creating layer inception_4c/relu_pool_proj
I0306 15:53:12.199638   531 net.cpp:94] Creating Layer inception_4c/relu_pool_proj
I0306 15:53:12.199645   531 net.cpp:435] inception_4c/relu_pool_proj <- inception_4c/pool_proj
I0306 15:53:12.199673   531 net.cpp:396] inception_4c/relu_pool_proj -> inception_4c/pool_proj (in-place)
I0306 15:53:12.199687   531 net.cpp:144] Setting up inception_4c/relu_pool_proj
I0306 15:53:12.199694   531 net.cpp:151] Top shape: 32 64 14 14 (401408)
I0306 15:53:12.199699   531 net.cpp:159] Memory required for data: 1417331588
I0306 15:53:12.199705   531 layer_factory.hpp:77] Creating layer inception_4c/output
I0306 15:53:12.199714   531 net.cpp:94] Creating Layer inception_4c/output
I0306 15:53:12.199720   531 net.cpp:435] inception_4c/output <- inception_4c/1x1
I0306 15:53:12.199728   531 net.cpp:435] inception_4c/output <- inception_4c/3x3
I0306 15:53:12.199733   531 net.cpp:435] inception_4c/output <- inception_4c/5x5
I0306 15:53:12.199740   531 net.cpp:435] inception_4c/output <- inception_4c/pool_proj
I0306 15:53:12.199749   531 net.cpp:409] inception_4c/output -> inception_4c/output
I0306 15:53:12.199796   531 net.cpp:144] Setting up inception_4c/output
I0306 15:53:12.199806   531 net.cpp:151] Top shape: 32 512 14 14 (3211264)
I0306 15:53:12.199811   531 net.cpp:159] Memory required for data: 1430176644
I0306 15:53:12.199817   531 layer_factory.hpp:77] Creating layer inception_4c/output_inception_4c/output_0_split
I0306 15:53:12.199828   531 net.cpp:94] Creating Layer inception_4c/output_inception_4c/output_0_split
I0306 15:53:12.199834   531 net.cpp:435] inception_4c/output_inception_4c/output_0_split <- inception_4c/output
I0306 15:53:12.199844   531 net.cpp:409] inception_4c/output_inception_4c/output_0_split -> inception_4c/output_inception_4c/output_0_split_0
I0306 15:53:12.199856   531 net.cpp:409] inception_4c/output_inception_4c/output_0_split -> inception_4c/output_inception_4c/output_0_split_1
I0306 15:53:12.199867   531 net.cpp:409] inception_4c/output_inception_4c/output_0_split -> inception_4c/output_inception_4c/output_0_split_2
I0306 15:53:12.199877   531 net.cpp:409] inception_4c/output_inception_4c/output_0_split -> inception_4c/output_inception_4c/output_0_split_3
I0306 15:53:12.199962   531 net.cpp:144] Setting up inception_4c/output_inception_4c/output_0_split
I0306 15:53:12.199972   531 net.cpp:151] Top shape: 32 512 14 14 (3211264)
I0306 15:53:12.199980   531 net.cpp:151] Top shape: 32 512 14 14 (3211264)
I0306 15:53:12.199986   531 net.cpp:151] Top shape: 32 512 14 14 (3211264)
I0306 15:53:12.199992   531 net.cpp:151] Top shape: 32 512 14 14 (3211264)
I0306 15:53:12.199997   531 net.cpp:159] Memory required for data: 1481556868
I0306 15:53:12.200003   531 layer_factory.hpp:77] Creating layer inception_4d/1x1
I0306 15:53:12.200016   531 net.cpp:94] Creating Layer inception_4d/1x1
I0306 15:53:12.200022   531 net.cpp:435] inception_4d/1x1 <- inception_4c/output_inception_4c/output_0_split_0
I0306 15:53:12.200034   531 net.cpp:409] inception_4d/1x1 -> inception_4d/1x1
I0306 15:53:12.201828   531 net.cpp:144] Setting up inception_4d/1x1
I0306 15:53:12.201848   531 net.cpp:151] Top shape: 32 112 14 14 (702464)
I0306 15:53:12.201853   531 net.cpp:159] Memory required for data: 1484366724
I0306 15:53:12.201871   531 layer_factory.hpp:77] Creating layer inception_4d/relu_1x1
I0306 15:53:12.201881   531 net.cpp:94] Creating Layer inception_4d/relu_1x1
I0306 15:53:12.201889   531 net.cpp:435] inception_4d/relu_1x1 <- inception_4d/1x1
I0306 15:53:12.201897   531 net.cpp:396] inception_4d/relu_1x1 -> inception_4d/1x1 (in-place)
I0306 15:53:12.201910   531 net.cpp:144] Setting up inception_4d/relu_1x1
I0306 15:53:12.201917   531 net.cpp:151] Top shape: 32 112 14 14 (702464)
I0306 15:53:12.201922   531 net.cpp:159] Memory required for data: 1487176580
I0306 15:53:12.201928   531 layer_factory.hpp:77] Creating layer inception_4d/3x3_reduce
I0306 15:53:12.201941   531 net.cpp:94] Creating Layer inception_4d/3x3_reduce
I0306 15:53:12.201948   531 net.cpp:435] inception_4d/3x3_reduce <- inception_4c/output_inception_4c/output_0_split_1
I0306 15:53:12.201959   531 net.cpp:409] inception_4d/3x3_reduce -> inception_4d/3x3_reduce
I0306 15:53:12.203166   531 net.cpp:144] Setting up inception_4d/3x3_reduce
I0306 15:53:12.203184   531 net.cpp:151] Top shape: 32 144 14 14 (903168)
I0306 15:53:12.203191   531 net.cpp:159] Memory required for data: 1490789252
I0306 15:53:12.203200   531 layer_factory.hpp:77] Creating layer inception_4d/relu_3x3_reduce
I0306 15:53:12.203210   531 net.cpp:94] Creating Layer inception_4d/relu_3x3_reduce
I0306 15:53:12.203217   531 net.cpp:435] inception_4d/relu_3x3_reduce <- inception_4d/3x3_reduce
I0306 15:53:12.203233   531 net.cpp:396] inception_4d/relu_3x3_reduce -> inception_4d/3x3_reduce (in-place)
I0306 15:53:12.203243   531 net.cpp:144] Setting up inception_4d/relu_3x3_reduce
I0306 15:53:12.203251   531 net.cpp:151] Top shape: 32 144 14 14 (903168)
I0306 15:53:12.203256   531 net.cpp:159] Memory required for data: 1494401924
I0306 15:53:12.203261   531 layer_factory.hpp:77] Creating layer inception_4d/3x3
I0306 15:53:12.203274   531 net.cpp:94] Creating Layer inception_4d/3x3
I0306 15:53:12.203280   531 net.cpp:435] inception_4d/3x3 <- inception_4d/3x3_reduce
I0306 15:53:12.203290   531 net.cpp:409] inception_4d/3x3 -> inception_4d/3x3
I0306 15:53:12.208734   531 net.cpp:144] Setting up inception_4d/3x3
I0306 15:53:12.208756   531 net.cpp:151] Top shape: 32 288 14 14 (1806336)
I0306 15:53:12.208762   531 net.cpp:159] Memory required for data: 1501627268
I0306 15:53:12.208772   531 layer_factory.hpp:77] Creating layer inception_4d/relu_3x3
I0306 15:53:12.208782   531 net.cpp:94] Creating Layer inception_4d/relu_3x3
I0306 15:53:12.208789   531 net.cpp:435] inception_4d/relu_3x3 <- inception_4d/3x3
I0306 15:53:12.208799   531 net.cpp:396] inception_4d/relu_3x3 -> inception_4d/3x3 (in-place)
I0306 15:53:12.208811   531 net.cpp:144] Setting up inception_4d/relu_3x3
I0306 15:53:12.208819   531 net.cpp:151] Top shape: 32 288 14 14 (1806336)
I0306 15:53:12.208824   531 net.cpp:159] Memory required for data: 1508852612
I0306 15:53:12.208829   531 layer_factory.hpp:77] Creating layer inception_4d/5x5_reduce
I0306 15:53:12.208842   531 net.cpp:94] Creating Layer inception_4d/5x5_reduce
I0306 15:53:12.208848   531 net.cpp:435] inception_4d/5x5_reduce <- inception_4c/output_inception_4c/output_0_split_2
I0306 15:53:12.208859   531 net.cpp:409] inception_4d/5x5_reduce -> inception_4d/5x5_reduce
I0306 15:53:12.209339   531 net.cpp:144] Setting up inception_4d/5x5_reduce
I0306 15:53:12.209353   531 net.cpp:151] Top shape: 32 32 14 14 (200704)
I0306 15:53:12.209359   531 net.cpp:159] Memory required for data: 1509655428
I0306 15:53:12.209368   531 layer_factory.hpp:77] Creating layer inception_4d/relu_5x5_reduce
I0306 15:53:12.209378   531 net.cpp:94] Creating Layer inception_4d/relu_5x5_reduce
I0306 15:53:12.209390   531 net.cpp:435] inception_4d/relu_5x5_reduce <- inception_4d/5x5_reduce
I0306 15:53:12.209399   531 net.cpp:396] inception_4d/relu_5x5_reduce -> inception_4d/5x5_reduce (in-place)
I0306 15:53:12.209410   531 net.cpp:144] Setting up inception_4d/relu_5x5_reduce
I0306 15:53:12.209417   531 net.cpp:151] Top shape: 32 32 14 14 (200704)
I0306 15:53:12.209422   531 net.cpp:159] Memory required for data: 1510458244
I0306 15:53:12.209427   531 layer_factory.hpp:77] Creating layer inception_4d/5x5
I0306 15:53:12.209440   531 net.cpp:94] Creating Layer inception_4d/5x5
I0306 15:53:12.209446   531 net.cpp:435] inception_4d/5x5 <- inception_4d/5x5_reduce
I0306 15:53:12.209456   531 net.cpp:409] inception_4d/5x5 -> inception_4d/5x5
I0306 15:53:12.210367   531 net.cpp:144] Setting up inception_4d/5x5
I0306 15:53:12.210381   531 net.cpp:151] Top shape: 32 64 14 14 (401408)
I0306 15:53:12.210387   531 net.cpp:159] Memory required for data: 1512063876
I0306 15:53:12.210397   531 layer_factory.hpp:77] Creating layer inception_4d/relu_5x5
I0306 15:53:12.210405   531 net.cpp:94] Creating Layer inception_4d/relu_5x5
I0306 15:53:12.210412   531 net.cpp:435] inception_4d/relu_5x5 <- inception_4d/5x5
I0306 15:53:12.210420   531 net.cpp:396] inception_4d/relu_5x5 -> inception_4d/5x5 (in-place)
I0306 15:53:12.210431   531 net.cpp:144] Setting up inception_4d/relu_5x5
I0306 15:53:12.210458   531 net.cpp:151] Top shape: 32 64 14 14 (401408)
I0306 15:53:12.210464   531 net.cpp:159] Memory required for data: 1513669508
I0306 15:53:12.210469   531 layer_factory.hpp:77] Creating layer inception_4d/pool
I0306 15:53:12.210479   531 net.cpp:94] Creating Layer inception_4d/pool
I0306 15:53:12.210485   531 net.cpp:435] inception_4d/pool <- inception_4c/output_inception_4c/output_0_split_3
I0306 15:53:12.210495   531 net.cpp:409] inception_4d/pool -> inception_4d/pool
I0306 15:53:12.210549   531 net.cpp:144] Setting up inception_4d/pool
I0306 15:53:12.210559   531 net.cpp:151] Top shape: 32 512 14 14 (3211264)
I0306 15:53:12.210564   531 net.cpp:159] Memory required for data: 1526514564
I0306 15:53:12.210570   531 layer_factory.hpp:77] Creating layer inception_4d/pool_proj
I0306 15:53:12.210584   531 net.cpp:94] Creating Layer inception_4d/pool_proj
I0306 15:53:12.210590   531 net.cpp:435] inception_4d/pool_proj <- inception_4d/pool
I0306 15:53:12.210602   531 net.cpp:409] inception_4d/pool_proj -> inception_4d/pool_proj
I0306 15:53:12.211297   531 net.cpp:144] Setting up inception_4d/pool_proj
I0306 15:53:12.211313   531 net.cpp:151] Top shape: 32 64 14 14 (401408)
I0306 15:53:12.211318   531 net.cpp:159] Memory required for data: 1528120196
I0306 15:53:12.211328   531 layer_factory.hpp:77] Creating layer inception_4d/relu_pool_proj
I0306 15:53:12.211336   531 net.cpp:94] Creating Layer inception_4d/relu_pool_proj
I0306 15:53:12.211344   531 net.cpp:435] inception_4d/relu_pool_proj <- inception_4d/pool_proj
I0306 15:53:12.211352   531 net.cpp:396] inception_4d/relu_pool_proj -> inception_4d/pool_proj (in-place)
I0306 15:53:12.211362   531 net.cpp:144] Setting up inception_4d/relu_pool_proj
I0306 15:53:12.211369   531 net.cpp:151] Top shape: 32 64 14 14 (401408)
I0306 15:53:12.211374   531 net.cpp:159] Memory required for data: 1529725828
I0306 15:53:12.211380   531 layer_factory.hpp:77] Creating layer inception_4d/output
I0306 15:53:12.211390   531 net.cpp:94] Creating Layer inception_4d/output
I0306 15:53:12.211395   531 net.cpp:435] inception_4d/output <- inception_4d/1x1
I0306 15:53:12.211402   531 net.cpp:435] inception_4d/output <- inception_4d/3x3
I0306 15:53:12.211408   531 net.cpp:435] inception_4d/output <- inception_4d/5x5
I0306 15:53:12.211416   531 net.cpp:435] inception_4d/output <- inception_4d/pool_proj
I0306 15:53:12.211423   531 net.cpp:409] inception_4d/output -> inception_4d/output
I0306 15:53:12.211457   531 net.cpp:144] Setting up inception_4d/output
I0306 15:53:12.211467   531 net.cpp:151] Top shape: 32 528 14 14 (3311616)
I0306 15:53:12.211472   531 net.cpp:159] Memory required for data: 1542972292
I0306 15:53:12.211477   531 layer_factory.hpp:77] Creating layer inception_4d/output_inception_4d/output_0_split
I0306 15:53:12.211491   531 net.cpp:94] Creating Layer inception_4d/output_inception_4d/output_0_split
I0306 15:53:12.211498   531 net.cpp:435] inception_4d/output_inception_4d/output_0_split <- inception_4d/output
I0306 15:53:12.211508   531 net.cpp:409] inception_4d/output_inception_4d/output_0_split -> inception_4d/output_inception_4d/output_0_split_0
I0306 15:53:12.211519   531 net.cpp:409] inception_4d/output_inception_4d/output_0_split -> inception_4d/output_inception_4d/output_0_split_1
I0306 15:53:12.211529   531 net.cpp:409] inception_4d/output_inception_4d/output_0_split -> inception_4d/output_inception_4d/output_0_split_2
I0306 15:53:12.211540   531 net.cpp:409] inception_4d/output_inception_4d/output_0_split -> inception_4d/output_inception_4d/output_0_split_3
I0306 15:53:12.211549   531 net.cpp:409] inception_4d/output_inception_4d/output_0_split -> inception_4d/output_inception_4d/output_0_split_4
I0306 15:53:12.211658   531 net.cpp:144] Setting up inception_4d/output_inception_4d/output_0_split
I0306 15:53:12.211668   531 net.cpp:151] Top shape: 32 528 14 14 (3311616)
I0306 15:53:12.211674   531 net.cpp:151] Top shape: 32 528 14 14 (3311616)
I0306 15:53:12.211681   531 net.cpp:151] Top shape: 32 528 14 14 (3311616)
I0306 15:53:12.211688   531 net.cpp:151] Top shape: 32 528 14 14 (3311616)
I0306 15:53:12.211712   531 net.cpp:151] Top shape: 32 528 14 14 (3311616)
I0306 15:53:12.211719   531 net.cpp:159] Memory required for data: 1609204612
I0306 15:53:12.211724   531 layer_factory.hpp:77] Creating layer loss2/ave_pool
I0306 15:53:12.211732   531 net.cpp:94] Creating Layer loss2/ave_pool
I0306 15:53:12.211738   531 net.cpp:435] loss2/ave_pool <- inception_4d/output_inception_4d/output_0_split_0
I0306 15:53:12.211748   531 net.cpp:409] loss2/ave_pool -> loss2/ave_pool
I0306 15:53:12.211787   531 net.cpp:144] Setting up loss2/ave_pool
I0306 15:53:12.211796   531 net.cpp:151] Top shape: 32 528 4 4 (270336)
I0306 15:53:12.211802   531 net.cpp:159] Memory required for data: 1610285956
I0306 15:53:12.211808   531 layer_factory.hpp:77] Creating layer loss2/conv
I0306 15:53:12.211822   531 net.cpp:94] Creating Layer loss2/conv
I0306 15:53:12.211827   531 net.cpp:435] loss2/conv <- loss2/ave_pool
I0306 15:53:12.211838   531 net.cpp:409] loss2/conv -> loss2/conv
I0306 15:53:12.213807   531 net.cpp:144] Setting up loss2/conv
I0306 15:53:12.213826   531 net.cpp:151] Top shape: 32 128 4 4 (65536)
I0306 15:53:12.213834   531 net.cpp:159] Memory required for data: 1610548100
I0306 15:53:12.213843   531 layer_factory.hpp:77] Creating layer loss2/relu_conv
I0306 15:53:12.213853   531 net.cpp:94] Creating Layer loss2/relu_conv
I0306 15:53:12.213860   531 net.cpp:435] loss2/relu_conv <- loss2/conv
I0306 15:53:12.213869   531 net.cpp:396] loss2/relu_conv -> loss2/conv (in-place)
I0306 15:53:12.213881   531 net.cpp:144] Setting up loss2/relu_conv
I0306 15:53:12.213888   531 net.cpp:151] Top shape: 32 128 4 4 (65536)
I0306 15:53:12.213893   531 net.cpp:159] Memory required for data: 1610810244
I0306 15:53:12.213898   531 layer_factory.hpp:77] Creating layer loss2/fc
I0306 15:53:12.213909   531 net.cpp:94] Creating Layer loss2/fc
I0306 15:53:12.213914   531 net.cpp:435] loss2/fc <- loss2/conv
I0306 15:53:12.213924   531 net.cpp:409] loss2/fc -> loss2/fc
I0306 15:53:12.241515   531 net.cpp:144] Setting up loss2/fc
I0306 15:53:12.241561   531 net.cpp:151] Top shape: 32 1024 (32768)
I0306 15:53:12.241567   531 net.cpp:159] Memory required for data: 1610941316
I0306 15:53:12.241587   531 layer_factory.hpp:77] Creating layer loss2/relu_fc
I0306 15:53:12.241600   531 net.cpp:94] Creating Layer loss2/relu_fc
I0306 15:53:12.241631   531 net.cpp:435] loss2/relu_fc <- loss2/fc
I0306 15:53:12.241644   531 net.cpp:396] loss2/relu_fc -> loss2/fc (in-place)
I0306 15:53:12.241673   531 net.cpp:144] Setting up loss2/relu_fc
I0306 15:53:12.241681   531 net.cpp:151] Top shape: 32 1024 (32768)
I0306 15:53:12.241686   531 net.cpp:159] Memory required for data: 1611072388
I0306 15:53:12.241693   531 layer_factory.hpp:77] Creating layer loss2/drop_fc
I0306 15:53:12.241703   531 net.cpp:94] Creating Layer loss2/drop_fc
I0306 15:53:12.241708   531 net.cpp:435] loss2/drop_fc <- loss2/fc
I0306 15:53:12.241716   531 net.cpp:396] loss2/drop_fc -> loss2/fc (in-place)
I0306 15:53:12.241757   531 net.cpp:144] Setting up loss2/drop_fc
I0306 15:53:12.241766   531 net.cpp:151] Top shape: 32 1024 (32768)
I0306 15:53:12.241771   531 net.cpp:159] Memory required for data: 1611203460
I0306 15:53:12.241776   531 layer_factory.hpp:77] Creating layer loss2/classifier
I0306 15:53:12.241796   531 net.cpp:94] Creating Layer loss2/classifier
I0306 15:53:12.241802   531 net.cpp:435] loss2/classifier <- loss2/fc
I0306 15:53:12.241812   531 net.cpp:409] loss2/classifier -> loss2/classifier
I0306 15:53:12.242008   531 net.cpp:144] Setting up loss2/classifier
I0306 15:53:12.242019   531 net.cpp:151] Top shape: 32 3 (96)
I0306 15:53:12.242024   531 net.cpp:159] Memory required for data: 1611203844
I0306 15:53:12.242034   531 layer_factory.hpp:77] Creating layer loss2/loss
I0306 15:53:12.242045   531 net.cpp:94] Creating Layer loss2/loss
I0306 15:53:12.242053   531 net.cpp:435] loss2/loss <- loss2/classifier
I0306 15:53:12.242059   531 net.cpp:435] loss2/loss <- label_train-data_1_split_1
I0306 15:53:12.242069   531 net.cpp:409] loss2/loss -> loss2/loss
I0306 15:53:12.242107   531 layer_factory.hpp:77] Creating layer loss2/loss
I0306 15:53:12.242240   531 net.cpp:144] Setting up loss2/loss
I0306 15:53:12.242251   531 net.cpp:151] Top shape: (1)
I0306 15:53:12.242256   531 net.cpp:154]     with loss weight 0.3
I0306 15:53:12.242274   531 net.cpp:159] Memory required for data: 1611203848
I0306 15:53:12.242280   531 layer_factory.hpp:77] Creating layer inception_4e/1x1
I0306 15:53:12.242297   531 net.cpp:94] Creating Layer inception_4e/1x1
I0306 15:53:12.242305   531 net.cpp:435] inception_4e/1x1 <- inception_4d/output_inception_4d/output_0_split_1
I0306 15:53:12.242316   531 net.cpp:409] inception_4e/1x1 -> inception_4e/1x1
I0306 15:53:12.244222   531 net.cpp:144] Setting up inception_4e/1x1
I0306 15:53:12.244241   531 net.cpp:151] Top shape: 32 256 14 14 (1605632)
I0306 15:53:12.244247   531 net.cpp:159] Memory required for data: 1617626376
I0306 15:53:12.244257   531 layer_factory.hpp:77] Creating layer inception_4e/relu_1x1
I0306 15:53:12.244266   531 net.cpp:94] Creating Layer inception_4e/relu_1x1
I0306 15:53:12.244272   531 net.cpp:435] inception_4e/relu_1x1 <- inception_4e/1x1
I0306 15:53:12.244284   531 net.cpp:396] inception_4e/relu_1x1 -> inception_4e/1x1 (in-place)
I0306 15:53:12.244297   531 net.cpp:144] Setting up inception_4e/relu_1x1
I0306 15:53:12.244304   531 net.cpp:151] Top shape: 32 256 14 14 (1605632)
I0306 15:53:12.244309   531 net.cpp:159] Memory required for data: 1624048904
I0306 15:53:12.244314   531 layer_factory.hpp:77] Creating layer inception_4e/3x3_reduce
I0306 15:53:12.244329   531 net.cpp:94] Creating Layer inception_4e/3x3_reduce
I0306 15:53:12.244336   531 net.cpp:435] inception_4e/3x3_reduce <- inception_4d/output_inception_4d/output_0_split_2
I0306 15:53:12.244346   531 net.cpp:409] inception_4e/3x3_reduce -> inception_4e/3x3_reduce
I0306 15:53:12.246650   531 net.cpp:144] Setting up inception_4e/3x3_reduce
I0306 15:53:12.246670   531 net.cpp:151] Top shape: 32 160 14 14 (1003520)
I0306 15:53:12.246676   531 net.cpp:159] Memory required for data: 1628062984
I0306 15:53:12.246686   531 layer_factory.hpp:77] Creating layer inception_4e/relu_3x3_reduce
I0306 15:53:12.246696   531 net.cpp:94] Creating Layer inception_4e/relu_3x3_reduce
I0306 15:53:12.246703   531 net.cpp:435] inception_4e/relu_3x3_reduce <- inception_4e/3x3_reduce
I0306 15:53:12.246716   531 net.cpp:396] inception_4e/relu_3x3_reduce -> inception_4e/3x3_reduce (in-place)
I0306 15:53:12.246727   531 net.cpp:144] Setting up inception_4e/relu_3x3_reduce
I0306 15:53:12.246735   531 net.cpp:151] Top shape: 32 160 14 14 (1003520)
I0306 15:53:12.246740   531 net.cpp:159] Memory required for data: 1632077064
I0306 15:53:12.246747   531 layer_factory.hpp:77] Creating layer inception_4e/3x3
I0306 15:53:12.246762   531 net.cpp:94] Creating Layer inception_4e/3x3
I0306 15:53:12.246767   531 net.cpp:435] inception_4e/3x3 <- inception_4e/3x3_reduce
I0306 15:53:12.246779   531 net.cpp:409] inception_4e/3x3 -> inception_4e/3x3
I0306 15:53:12.253262   531 net.cpp:144] Setting up inception_4e/3x3
I0306 15:53:12.253290   531 net.cpp:151] Top shape: 32 320 14 14 (2007040)
I0306 15:53:12.253298   531 net.cpp:159] Memory required for data: 1640105224
I0306 15:53:12.253309   531 layer_factory.hpp:77] Creating layer inception_4e/relu_3x3
I0306 15:53:12.253320   531 net.cpp:94] Creating Layer inception_4e/relu_3x3
I0306 15:53:12.253329   531 net.cpp:435] inception_4e/relu_3x3 <- inception_4e/3x3
I0306 15:53:12.253340   531 net.cpp:396] inception_4e/relu_3x3 -> inception_4e/3x3 (in-place)
I0306 15:53:12.253356   531 net.cpp:144] Setting up inception_4e/relu_3x3
I0306 15:53:12.253365   531 net.cpp:151] Top shape: 32 320 14 14 (2007040)
I0306 15:53:12.253370   531 net.cpp:159] Memory required for data: 1648133384
I0306 15:53:12.253376   531 layer_factory.hpp:77] Creating layer inception_4e/5x5_reduce
I0306 15:53:12.253391   531 net.cpp:94] Creating Layer inception_4e/5x5_reduce
I0306 15:53:12.253397   531 net.cpp:435] inception_4e/5x5_reduce <- inception_4d/output_inception_4d/output_0_split_3
I0306 15:53:12.253429   531 net.cpp:409] inception_4e/5x5_reduce -> inception_4e/5x5_reduce
I0306 15:53:12.253967   531 net.cpp:144] Setting up inception_4e/5x5_reduce
I0306 15:53:12.253980   531 net.cpp:151] Top shape: 32 32 14 14 (200704)
I0306 15:53:12.253986   531 net.cpp:159] Memory required for data: 1648936200
I0306 15:53:12.254000   531 layer_factory.hpp:77] Creating layer inception_4e/relu_5x5_reduce
I0306 15:53:12.254009   531 net.cpp:94] Creating Layer inception_4e/relu_5x5_reduce
I0306 15:53:12.254015   531 net.cpp:435] inception_4e/relu_5x5_reduce <- inception_4e/5x5_reduce
I0306 15:53:12.254026   531 net.cpp:396] inception_4e/relu_5x5_reduce -> inception_4e/5x5_reduce (in-place)
I0306 15:53:12.254038   531 net.cpp:144] Setting up inception_4e/relu_5x5_reduce
I0306 15:53:12.254045   531 net.cpp:151] Top shape: 32 32 14 14 (200704)
I0306 15:53:12.254050   531 net.cpp:159] Memory required for data: 1649739016
I0306 15:53:12.254056   531 layer_factory.hpp:77] Creating layer inception_4e/5x5
I0306 15:53:12.254137   531 net.cpp:94] Creating Layer inception_4e/5x5
I0306 15:53:12.254145   531 net.cpp:435] inception_4e/5x5 <- inception_4e/5x5_reduce
I0306 15:53:12.254154   531 net.cpp:409] inception_4e/5x5 -> inception_4e/5x5
I0306 15:53:12.255625   531 net.cpp:144] Setting up inception_4e/5x5
I0306 15:53:12.255643   531 net.cpp:151] Top shape: 32 128 14 14 (802816)
I0306 15:53:12.255650   531 net.cpp:159] Memory required for data: 1652950280
I0306 15:53:12.255659   531 layer_factory.hpp:77] Creating layer inception_4e/relu_5x5
I0306 15:53:12.255684   531 net.cpp:94] Creating Layer inception_4e/relu_5x5
I0306 15:53:12.255690   531 net.cpp:435] inception_4e/relu_5x5 <- inception_4e/5x5
I0306 15:53:12.255717   531 net.cpp:396] inception_4e/relu_5x5 -> inception_4e/5x5 (in-place)
I0306 15:53:12.255728   531 net.cpp:144] Setting up inception_4e/relu_5x5
I0306 15:53:12.255734   531 net.cpp:151] Top shape: 32 128 14 14 (802816)
I0306 15:53:12.255739   531 net.cpp:159] Memory required for data: 1656161544
I0306 15:53:12.255744   531 layer_factory.hpp:77] Creating layer inception_4e/pool
I0306 15:53:12.255754   531 net.cpp:94] Creating Layer inception_4e/pool
I0306 15:53:12.255759   531 net.cpp:435] inception_4e/pool <- inception_4d/output_inception_4d/output_0_split_4
I0306 15:53:12.255767   531 net.cpp:409] inception_4e/pool -> inception_4e/pool
I0306 15:53:12.255838   531 net.cpp:144] Setting up inception_4e/pool
I0306 15:53:12.255853   531 net.cpp:151] Top shape: 32 528 14 14 (3311616)
I0306 15:53:12.255858   531 net.cpp:159] Memory required for data: 1669408008
I0306 15:53:12.255863   531 layer_factory.hpp:77] Creating layer inception_4e/pool_proj
I0306 15:53:12.255895   531 net.cpp:94] Creating Layer inception_4e/pool_proj
I0306 15:53:12.255903   531 net.cpp:435] inception_4e/pool_proj <- inception_4e/pool
I0306 15:53:12.255913   531 net.cpp:409] inception_4e/pool_proj -> inception_4e/pool_proj
I0306 15:53:12.256938   531 net.cpp:144] Setting up inception_4e/pool_proj
I0306 15:53:12.256953   531 net.cpp:151] Top shape: 32 128 14 14 (802816)
I0306 15:53:12.256959   531 net.cpp:159] Memory required for data: 1672619272
I0306 15:53:12.256968   531 layer_factory.hpp:77] Creating layer inception_4e/relu_pool_proj
I0306 15:53:12.256978   531 net.cpp:94] Creating Layer inception_4e/relu_pool_proj
I0306 15:53:12.256984   531 net.cpp:435] inception_4e/relu_pool_proj <- inception_4e/pool_proj
I0306 15:53:12.256992   531 net.cpp:396] inception_4e/relu_pool_proj -> inception_4e/pool_proj (in-place)
I0306 15:53:12.257002   531 net.cpp:144] Setting up inception_4e/relu_pool_proj
I0306 15:53:12.257010   531 net.cpp:151] Top shape: 32 128 14 14 (802816)
I0306 15:53:12.257015   531 net.cpp:159] Memory required for data: 1675830536
I0306 15:53:12.257020   531 layer_factory.hpp:77] Creating layer inception_4e/output
I0306 15:53:12.257032   531 net.cpp:94] Creating Layer inception_4e/output
I0306 15:53:12.257038   531 net.cpp:435] inception_4e/output <- inception_4e/1x1
I0306 15:53:12.257045   531 net.cpp:435] inception_4e/output <- inception_4e/3x3
I0306 15:53:12.257071   531 net.cpp:435] inception_4e/output <- inception_4e/5x5
I0306 15:53:12.257079   531 net.cpp:435] inception_4e/output <- inception_4e/pool_proj
I0306 15:53:12.257091   531 net.cpp:409] inception_4e/output -> inception_4e/output
I0306 15:53:12.257145   531 net.cpp:144] Setting up inception_4e/output
I0306 15:53:12.257156   531 net.cpp:151] Top shape: 32 832 14 14 (5218304)
I0306 15:53:12.257161   531 net.cpp:159] Memory required for data: 1696703752
I0306 15:53:12.257166   531 layer_factory.hpp:77] Creating layer pool4/3x3_s2
I0306 15:53:12.257179   531 net.cpp:94] Creating Layer pool4/3x3_s2
I0306 15:53:12.257184   531 net.cpp:435] pool4/3x3_s2 <- inception_4e/output
I0306 15:53:12.257194   531 net.cpp:409] pool4/3x3_s2 -> pool4/3x3_s2
I0306 15:53:12.257275   531 net.cpp:144] Setting up pool4/3x3_s2
I0306 15:53:12.257285   531 net.cpp:151] Top shape: 32 832 7 7 (1304576)
I0306 15:53:12.257292   531 net.cpp:159] Memory required for data: 1701922056
I0306 15:53:12.257297   531 layer_factory.hpp:77] Creating layer pool4/3x3_s2_pool4/3x3_s2_0_split
I0306 15:53:12.257323   531 net.cpp:94] Creating Layer pool4/3x3_s2_pool4/3x3_s2_0_split
I0306 15:53:12.257329   531 net.cpp:435] pool4/3x3_s2_pool4/3x3_s2_0_split <- pool4/3x3_s2
I0306 15:53:12.257340   531 net.cpp:409] pool4/3x3_s2_pool4/3x3_s2_0_split -> pool4/3x3_s2_pool4/3x3_s2_0_split_0
I0306 15:53:12.257351   531 net.cpp:409] pool4/3x3_s2_pool4/3x3_s2_0_split -> pool4/3x3_s2_pool4/3x3_s2_0_split_1
I0306 15:53:12.257361   531 net.cpp:409] pool4/3x3_s2_pool4/3x3_s2_0_split -> pool4/3x3_s2_pool4/3x3_s2_0_split_2
I0306 15:53:12.257375   531 net.cpp:409] pool4/3x3_s2_pool4/3x3_s2_0_split -> pool4/3x3_s2_pool4/3x3_s2_0_split_3
I0306 15:53:12.257467   531 net.cpp:144] Setting up pool4/3x3_s2_pool4/3x3_s2_0_split
I0306 15:53:12.257477   531 net.cpp:151] Top shape: 32 832 7 7 (1304576)
I0306 15:53:12.257484   531 net.cpp:151] Top shape: 32 832 7 7 (1304576)
I0306 15:53:12.257491   531 net.cpp:151] Top shape: 32 832 7 7 (1304576)
I0306 15:53:12.257498   531 net.cpp:151] Top shape: 32 832 7 7 (1304576)
I0306 15:53:12.257503   531 net.cpp:159] Memory required for data: 1722795272
I0306 15:53:12.257508   531 layer_factory.hpp:77] Creating layer inception_5a/1x1
I0306 15:53:12.257522   531 net.cpp:94] Creating Layer inception_5a/1x1
I0306 15:53:12.257529   531 net.cpp:435] inception_5a/1x1 <- pool4/3x3_s2_pool4/3x3_s2_0_split_0
I0306 15:53:12.257541   531 net.cpp:409] inception_5a/1x1 -> inception_5a/1x1
I0306 15:53:12.261061   531 net.cpp:144] Setting up inception_5a/1x1
I0306 15:53:12.261083   531 net.cpp:151] Top shape: 32 256 7 7 (401408)
I0306 15:53:12.261090   531 net.cpp:159] Memory required for data: 1724400904
I0306 15:53:12.261101   531 layer_factory.hpp:77] Creating layer inception_5a/relu_1x1
I0306 15:53:12.261111   531 net.cpp:94] Creating Layer inception_5a/relu_1x1
I0306 15:53:12.261169   531 net.cpp:435] inception_5a/relu_1x1 <- inception_5a/1x1
I0306 15:53:12.261196   531 net.cpp:396] inception_5a/relu_1x1 -> inception_5a/1x1 (in-place)
I0306 15:53:12.261214   531 net.cpp:144] Setting up inception_5a/relu_1x1
I0306 15:53:12.261224   531 net.cpp:151] Top shape: 32 256 7 7 (401408)
I0306 15:53:12.261229   531 net.cpp:159] Memory required for data: 1726006536
I0306 15:53:12.261235   531 layer_factory.hpp:77] Creating layer inception_5a/3x3_reduce
I0306 15:53:12.261260   531 net.cpp:94] Creating Layer inception_5a/3x3_reduce
I0306 15:53:12.261268   531 net.cpp:435] inception_5a/3x3_reduce <- pool4/3x3_s2_pool4/3x3_s2_0_split_1
I0306 15:53:12.261279   531 net.cpp:409] inception_5a/3x3_reduce -> inception_5a/3x3_reduce
I0306 15:53:12.264111   531 net.cpp:144] Setting up inception_5a/3x3_reduce
I0306 15:53:12.264134   531 net.cpp:151] Top shape: 32 160 7 7 (250880)
I0306 15:53:12.264140   531 net.cpp:159] Memory required for data: 1727010056
I0306 15:53:12.264151   531 layer_factory.hpp:77] Creating layer inception_5a/relu_3x3_reduce
I0306 15:53:12.264161   531 net.cpp:94] Creating Layer inception_5a/relu_3x3_reduce
I0306 15:53:12.264189   531 net.cpp:435] inception_5a/relu_3x3_reduce <- inception_5a/3x3_reduce
I0306 15:53:12.264204   531 net.cpp:396] inception_5a/relu_3x3_reduce -> inception_5a/3x3_reduce (in-place)
I0306 15:53:12.264217   531 net.cpp:144] Setting up inception_5a/relu_3x3_reduce
I0306 15:53:12.264225   531 net.cpp:151] Top shape: 32 160 7 7 (250880)
I0306 15:53:12.264230   531 net.cpp:159] Memory required for data: 1728013576
I0306 15:53:12.264236   531 layer_factory.hpp:77] Creating layer inception_5a/3x3
I0306 15:53:12.264252   531 net.cpp:94] Creating Layer inception_5a/3x3
I0306 15:53:12.264258   531 net.cpp:435] inception_5a/3x3 <- inception_5a/3x3_reduce
I0306 15:53:12.264271   531 net.cpp:409] inception_5a/3x3 -> inception_5a/3x3
I0306 15:53:12.270715   531 net.cpp:144] Setting up inception_5a/3x3
I0306 15:53:12.270737   531 net.cpp:151] Top shape: 32 320 7 7 (501760)
I0306 15:53:12.270745   531 net.cpp:159] Memory required for data: 1730020616
I0306 15:53:12.270756   531 layer_factory.hpp:77] Creating layer inception_5a/relu_3x3
I0306 15:53:12.270769   531 net.cpp:94] Creating Layer inception_5a/relu_3x3
I0306 15:53:12.270776   531 net.cpp:435] inception_5a/relu_3x3 <- inception_5a/3x3
I0306 15:53:12.270787   531 net.cpp:396] inception_5a/relu_3x3 -> inception_5a/3x3 (in-place)
I0306 15:53:12.270799   531 net.cpp:144] Setting up inception_5a/relu_3x3
I0306 15:53:12.270807   531 net.cpp:151] Top shape: 32 320 7 7 (501760)
I0306 15:53:12.270812   531 net.cpp:159] Memory required for data: 1732027656
I0306 15:53:12.270817   531 layer_factory.hpp:77] Creating layer inception_5a/5x5_reduce
I0306 15:53:12.270833   531 net.cpp:94] Creating Layer inception_5a/5x5_reduce
I0306 15:53:12.270840   531 net.cpp:435] inception_5a/5x5_reduce <- pool4/3x3_s2_pool4/3x3_s2_0_split_2
I0306 15:53:12.270853   531 net.cpp:409] inception_5a/5x5_reduce -> inception_5a/5x5_reduce
I0306 15:53:12.271503   531 net.cpp:144] Setting up inception_5a/5x5_reduce
I0306 15:53:12.271520   531 net.cpp:151] Top shape: 32 32 7 7 (50176)
I0306 15:53:12.271528   531 net.cpp:159] Memory required for data: 1732228360
I0306 15:53:12.271536   531 layer_factory.hpp:77] Creating layer inception_5a/relu_5x5_reduce
I0306 15:53:12.271545   531 net.cpp:94] Creating Layer inception_5a/relu_5x5_reduce
I0306 15:53:12.271553   531 net.cpp:435] inception_5a/relu_5x5_reduce <- inception_5a/5x5_reduce
I0306 15:53:12.271566   531 net.cpp:396] inception_5a/relu_5x5_reduce -> inception_5a/5x5_reduce (in-place)
I0306 15:53:12.271579   531 net.cpp:144] Setting up inception_5a/relu_5x5_reduce
I0306 15:53:12.271586   531 net.cpp:151] Top shape: 32 32 7 7 (50176)
I0306 15:53:12.271592   531 net.cpp:159] Memory required for data: 1732429064
I0306 15:53:12.271597   531 layer_factory.hpp:77] Creating layer inception_5a/5x5
I0306 15:53:12.271612   531 net.cpp:94] Creating Layer inception_5a/5x5
I0306 15:53:12.271620   531 net.cpp:435] inception_5a/5x5 <- inception_5a/5x5_reduce
I0306 15:53:12.271628   531 net.cpp:409] inception_5a/5x5 -> inception_5a/5x5
I0306 15:53:12.273167   531 net.cpp:144] Setting up inception_5a/5x5
I0306 15:53:12.273192   531 net.cpp:151] Top shape: 32 128 7 7 (200704)
I0306 15:53:12.273200   531 net.cpp:159] Memory required for data: 1733231880
I0306 15:53:12.273209   531 layer_factory.hpp:77] Creating layer inception_5a/relu_5x5
I0306 15:53:12.273218   531 net.cpp:94] Creating Layer inception_5a/relu_5x5
I0306 15:53:12.273253   531 net.cpp:435] inception_5a/relu_5x5 <- inception_5a/5x5
I0306 15:53:12.273265   531 net.cpp:396] inception_5a/relu_5x5 -> inception_5a/5x5 (in-place)
I0306 15:53:12.273278   531 net.cpp:144] Setting up inception_5a/relu_5x5
I0306 15:53:12.273286   531 net.cpp:151] Top shape: 32 128 7 7 (200704)
I0306 15:53:12.273291   531 net.cpp:159] Memory required for data: 1734034696
I0306 15:53:12.273298   531 layer_factory.hpp:77] Creating layer inception_5a/pool
I0306 15:53:12.273306   531 net.cpp:94] Creating Layer inception_5a/pool
I0306 15:53:12.273313   531 net.cpp:435] inception_5a/pool <- pool4/3x3_s2_pool4/3x3_s2_0_split_3
I0306 15:53:12.273347   531 net.cpp:409] inception_5a/pool -> inception_5a/pool
I0306 15:53:12.273412   531 net.cpp:144] Setting up inception_5a/pool
I0306 15:53:12.273423   531 net.cpp:151] Top shape: 32 832 7 7 (1304576)
I0306 15:53:12.273428   531 net.cpp:159] Memory required for data: 1739253000
I0306 15:53:12.273434   531 layer_factory.hpp:77] Creating layer inception_5a/pool_proj
I0306 15:53:12.273452   531 net.cpp:94] Creating Layer inception_5a/pool_proj
I0306 15:53:12.273458   531 net.cpp:435] inception_5a/pool_proj <- inception_5a/pool
I0306 15:53:12.273468   531 net.cpp:409] inception_5a/pool_proj -> inception_5a/pool_proj
I0306 15:53:12.275620   531 net.cpp:144] Setting up inception_5a/pool_proj
I0306 15:53:12.275640   531 net.cpp:151] Top shape: 32 128 7 7 (200704)
I0306 15:53:12.275645   531 net.cpp:159] Memory required for data: 1740055816
I0306 15:53:12.275655   531 layer_factory.hpp:77] Creating layer inception_5a/relu_pool_proj
I0306 15:53:12.275665   531 net.cpp:94] Creating Layer inception_5a/relu_pool_proj
I0306 15:53:12.275672   531 net.cpp:435] inception_5a/relu_pool_proj <- inception_5a/pool_proj
I0306 15:53:12.275684   531 net.cpp:396] inception_5a/relu_pool_proj -> inception_5a/pool_proj (in-place)
I0306 15:53:12.275696   531 net.cpp:144] Setting up inception_5a/relu_pool_proj
I0306 15:53:12.275704   531 net.cpp:151] Top shape: 32 128 7 7 (200704)
I0306 15:53:12.275709   531 net.cpp:159] Memory required for data: 1740858632
I0306 15:53:12.275714   531 layer_factory.hpp:77] Creating layer inception_5a/output
I0306 15:53:12.275724   531 net.cpp:94] Creating Layer inception_5a/output
I0306 15:53:12.275730   531 net.cpp:435] inception_5a/output <- inception_5a/1x1
I0306 15:53:12.275738   531 net.cpp:435] inception_5a/output <- inception_5a/3x3
I0306 15:53:12.275743   531 net.cpp:435] inception_5a/output <- inception_5a/5x5
I0306 15:53:12.275750   531 net.cpp:435] inception_5a/output <- inception_5a/pool_proj
I0306 15:53:12.275761   531 net.cpp:409] inception_5a/output -> inception_5a/output
I0306 15:53:12.275801   531 net.cpp:144] Setting up inception_5a/output
I0306 15:53:12.275811   531 net.cpp:151] Top shape: 32 832 7 7 (1304576)
I0306 15:53:12.275816   531 net.cpp:159] Memory required for data: 1746076936
I0306 15:53:12.275821   531 layer_factory.hpp:77] Creating layer inception_5a/output_inception_5a/output_0_split
I0306 15:53:12.275831   531 net.cpp:94] Creating Layer inception_5a/output_inception_5a/output_0_split
I0306 15:53:12.275837   531 net.cpp:435] inception_5a/output_inception_5a/output_0_split <- inception_5a/output
I0306 15:53:12.275849   531 net.cpp:409] inception_5a/output_inception_5a/output_0_split -> inception_5a/output_inception_5a/output_0_split_0
I0306 15:53:12.275861   531 net.cpp:409] inception_5a/output_inception_5a/output_0_split -> inception_5a/output_inception_5a/output_0_split_1
I0306 15:53:12.275871   531 net.cpp:409] inception_5a/output_inception_5a/output_0_split -> inception_5a/output_inception_5a/output_0_split_2
I0306 15:53:12.275883   531 net.cpp:409] inception_5a/output_inception_5a/output_0_split -> inception_5a/output_inception_5a/output_0_split_3
I0306 15:53:12.275964   531 net.cpp:144] Setting up inception_5a/output_inception_5a/output_0_split
I0306 15:53:12.275975   531 net.cpp:151] Top shape: 32 832 7 7 (1304576)
I0306 15:53:12.275982   531 net.cpp:151] Top shape: 32 832 7 7 (1304576)
I0306 15:53:12.275988   531 net.cpp:151] Top shape: 32 832 7 7 (1304576)
I0306 15:53:12.275995   531 net.cpp:151] Top shape: 32 832 7 7 (1304576)
I0306 15:53:12.276000   531 net.cpp:159] Memory required for data: 1766950152
I0306 15:53:12.276005   531 layer_factory.hpp:77] Creating layer inception_5b/1x1
I0306 15:53:12.276021   531 net.cpp:94] Creating Layer inception_5b/1x1
I0306 15:53:12.276027   531 net.cpp:435] inception_5b/1x1 <- inception_5a/output_inception_5a/output_0_split_0
I0306 15:53:12.276039   531 net.cpp:409] inception_5b/1x1 -> inception_5b/1x1
I0306 15:53:12.282326   531 net.cpp:144] Setting up inception_5b/1x1
I0306 15:53:12.282356   531 net.cpp:151] Top shape: 32 384 7 7 (602112)
I0306 15:53:12.282392   531 net.cpp:159] Memory required for data: 1769358600
I0306 15:53:12.282416   531 layer_factory.hpp:77] Creating layer inception_5b/relu_1x1
I0306 15:53:12.282436   531 net.cpp:94] Creating Layer inception_5b/relu_1x1
I0306 15:53:12.282445   531 net.cpp:435] inception_5b/relu_1x1 <- inception_5b/1x1
I0306 15:53:12.282459   531 net.cpp:396] inception_5b/relu_1x1 -> inception_5b/1x1 (in-place)
I0306 15:53:12.282483   531 net.cpp:144] Setting up inception_5b/relu_1x1
I0306 15:53:12.282491   531 net.cpp:151] Top shape: 32 384 7 7 (602112)
I0306 15:53:12.282497   531 net.cpp:159] Memory required for data: 1771767048
I0306 15:53:12.282503   531 layer_factory.hpp:77] Creating layer inception_5b/3x3_reduce
I0306 15:53:12.282569   531 net.cpp:94] Creating Layer inception_5b/3x3_reduce
I0306 15:53:12.282580   531 net.cpp:435] inception_5b/3x3_reduce <- inception_5a/output_inception_5a/output_0_split_1
I0306 15:53:12.282595   531 net.cpp:409] inception_5b/3x3_reduce -> inception_5b/3x3_reduce
I0306 15:53:12.285656   531 net.cpp:144] Setting up inception_5b/3x3_reduce
I0306 15:53:12.285677   531 net.cpp:151] Top shape: 32 192 7 7 (301056)
I0306 15:53:12.285683   531 net.cpp:159] Memory required for data: 1772971272
I0306 15:53:12.285707   531 layer_factory.hpp:77] Creating layer inception_5b/relu_3x3_reduce
I0306 15:53:12.285717   531 net.cpp:94] Creating Layer inception_5b/relu_3x3_reduce
I0306 15:53:12.285724   531 net.cpp:435] inception_5b/relu_3x3_reduce <- inception_5b/3x3_reduce
I0306 15:53:12.285733   531 net.cpp:396] inception_5b/relu_3x3_reduce -> inception_5b/3x3_reduce (in-place)
I0306 15:53:12.285759   531 net.cpp:144] Setting up inception_5b/relu_3x3_reduce
I0306 15:53:12.285892   531 net.cpp:151] Top shape: 32 192 7 7 (301056)
I0306 15:53:12.285899   531 net.cpp:159] Memory required for data: 1774175496
I0306 15:53:12.285905   531 layer_factory.hpp:77] Creating layer inception_5b/3x3
I0306 15:53:12.285923   531 net.cpp:94] Creating Layer inception_5b/3x3
I0306 15:53:12.285930   531 net.cpp:435] inception_5b/3x3 <- inception_5b/3x3_reduce
I0306 15:53:12.285939   531 net.cpp:409] inception_5b/3x3 -> inception_5b/3x3
I0306 15:53:12.295354   531 net.cpp:144] Setting up inception_5b/3x3
I0306 15:53:12.295380   531 net.cpp:151] Top shape: 32 384 7 7 (602112)
I0306 15:53:12.295387   531 net.cpp:159] Memory required for data: 1776583944
I0306 15:53:12.295397   531 layer_factory.hpp:77] Creating layer inception_5b/relu_3x3
I0306 15:53:12.295411   531 net.cpp:94] Creating Layer inception_5b/relu_3x3
I0306 15:53:12.295419   531 net.cpp:435] inception_5b/relu_3x3 <- inception_5b/3x3
I0306 15:53:12.295428   531 net.cpp:396] inception_5b/relu_3x3 -> inception_5b/3x3 (in-place)
I0306 15:53:12.295442   531 net.cpp:144] Setting up inception_5b/relu_3x3
I0306 15:53:12.295450   531 net.cpp:151] Top shape: 32 384 7 7 (602112)
I0306 15:53:12.295455   531 net.cpp:159] Memory required for data: 1778992392
I0306 15:53:12.295460   531 layer_factory.hpp:77] Creating layer inception_5b/5x5_reduce
I0306 15:53:12.295475   531 net.cpp:94] Creating Layer inception_5b/5x5_reduce
I0306 15:53:12.295482   531 net.cpp:435] inception_5b/5x5_reduce <- inception_5a/output_inception_5a/output_0_split_2
I0306 15:53:12.295497   531 net.cpp:409] inception_5b/5x5_reduce -> inception_5b/5x5_reduce
I0306 15:53:12.296298   531 net.cpp:144] Setting up inception_5b/5x5_reduce
I0306 15:53:12.296314   531 net.cpp:151] Top shape: 32 48 7 7 (75264)
I0306 15:53:12.296319   531 net.cpp:159] Memory required for data: 1779293448
I0306 15:53:12.296329   531 layer_factory.hpp:77] Creating layer inception_5b/relu_5x5_reduce
I0306 15:53:12.296341   531 net.cpp:94] Creating Layer inception_5b/relu_5x5_reduce
I0306 15:53:12.296348   531 net.cpp:435] inception_5b/relu_5x5_reduce <- inception_5b/5x5_reduce
I0306 15:53:12.296357   531 net.cpp:396] inception_5b/relu_5x5_reduce -> inception_5b/5x5_reduce (in-place)
I0306 15:53:12.296370   531 net.cpp:144] Setting up inception_5b/relu_5x5_reduce
I0306 15:53:12.296382   531 net.cpp:151] Top shape: 32 48 7 7 (75264)
I0306 15:53:12.296414   531 net.cpp:159] Memory required for data: 1779594504
I0306 15:53:12.296422   531 layer_factory.hpp:77] Creating layer inception_5b/5x5
I0306 15:53:12.296438   531 net.cpp:94] Creating Layer inception_5b/5x5
I0306 15:53:12.296444   531 net.cpp:435] inception_5b/5x5 <- inception_5b/5x5_reduce
I0306 15:53:12.296456   531 net.cpp:409] inception_5b/5x5 -> inception_5b/5x5
I0306 15:53:12.298473   531 net.cpp:144] Setting up inception_5b/5x5
I0306 15:53:12.298491   531 net.cpp:151] Top shape: 32 128 7 7 (200704)
I0306 15:53:12.298497   531 net.cpp:159] Memory required for data: 1780397320
I0306 15:53:12.298507   531 layer_factory.hpp:77] Creating layer inception_5b/relu_5x5
I0306 15:53:12.298517   531 net.cpp:94] Creating Layer inception_5b/relu_5x5
I0306 15:53:12.298523   531 net.cpp:435] inception_5b/relu_5x5 <- inception_5b/5x5
I0306 15:53:12.298532   531 net.cpp:396] inception_5b/relu_5x5 -> inception_5b/5x5 (in-place)
I0306 15:53:12.298544   531 net.cpp:144] Setting up inception_5b/relu_5x5
I0306 15:53:12.298552   531 net.cpp:151] Top shape: 32 128 7 7 (200704)
I0306 15:53:12.298557   531 net.cpp:159] Memory required for data: 1781200136
I0306 15:53:12.298563   531 layer_factory.hpp:77] Creating layer inception_5b/pool
I0306 15:53:12.298571   531 net.cpp:94] Creating Layer inception_5b/pool
I0306 15:53:12.298578   531 net.cpp:435] inception_5b/pool <- inception_5a/output_inception_5a/output_0_split_3
I0306 15:53:12.298589   531 net.cpp:409] inception_5b/pool -> inception_5b/pool
I0306 15:53:12.298662   531 net.cpp:144] Setting up inception_5b/pool
I0306 15:53:12.298673   531 net.cpp:151] Top shape: 32 832 7 7 (1304576)
I0306 15:53:12.298678   531 net.cpp:159] Memory required for data: 1786418440
I0306 15:53:12.298684   531 layer_factory.hpp:77] Creating layer inception_5b/pool_proj
I0306 15:53:12.298699   531 net.cpp:94] Creating Layer inception_5b/pool_proj
I0306 15:53:12.298707   531 net.cpp:435] inception_5b/pool_proj <- inception_5b/pool
I0306 15:53:12.298730   531 net.cpp:409] inception_5b/pool_proj -> inception_5b/pool_proj
I0306 15:53:12.301065   531 net.cpp:144] Setting up inception_5b/pool_proj
I0306 15:53:12.301086   531 net.cpp:151] Top shape: 32 128 7 7 (200704)
I0306 15:53:12.301093   531 net.cpp:159] Memory required for data: 1787221256
I0306 15:53:12.301103   531 layer_factory.hpp:77] Creating layer inception_5b/relu_pool_proj
I0306 15:53:12.301127   531 net.cpp:94] Creating Layer inception_5b/relu_pool_proj
I0306 15:53:12.301136   531 net.cpp:435] inception_5b/relu_pool_proj <- inception_5b/pool_proj
I0306 15:53:12.301143   531 net.cpp:396] inception_5b/relu_pool_proj -> inception_5b/pool_proj (in-place)
I0306 15:53:12.301156   531 net.cpp:144] Setting up inception_5b/relu_pool_proj
I0306 15:53:12.301164   531 net.cpp:151] Top shape: 32 128 7 7 (200704)
I0306 15:53:12.301169   531 net.cpp:159] Memory required for data: 1788024072
I0306 15:53:12.301175   531 layer_factory.hpp:77] Creating layer inception_5b/output
I0306 15:53:12.301188   531 net.cpp:94] Creating Layer inception_5b/output
I0306 15:53:12.301194   531 net.cpp:435] inception_5b/output <- inception_5b/1x1
I0306 15:53:12.301203   531 net.cpp:435] inception_5b/output <- inception_5b/3x3
I0306 15:53:12.301208   531 net.cpp:435] inception_5b/output <- inception_5b/5x5
I0306 15:53:12.301215   531 net.cpp:435] inception_5b/output <- inception_5b/pool_proj
I0306 15:53:12.301223   531 net.cpp:409] inception_5b/output -> inception_5b/output
I0306 15:53:12.301265   531 net.cpp:144] Setting up inception_5b/output
I0306 15:53:12.301275   531 net.cpp:151] Top shape: 32 1024 7 7 (1605632)
I0306 15:53:12.301280   531 net.cpp:159] Memory required for data: 1794446600
I0306 15:53:12.301285   531 layer_factory.hpp:77] Creating layer pool5/7x7_s1
I0306 15:53:12.301295   531 net.cpp:94] Creating Layer pool5/7x7_s1
I0306 15:53:12.301301   531 net.cpp:435] pool5/7x7_s1 <- inception_5b/output
I0306 15:53:12.301312   531 net.cpp:409] pool5/7x7_s1 -> pool5/7x7_s1
I0306 15:53:12.301350   531 net.cpp:144] Setting up pool5/7x7_s1
I0306 15:53:12.301378   531 net.cpp:151] Top shape: 32 1024 1 1 (32768)
I0306 15:53:12.301388   531 net.cpp:159] Memory required for data: 1794577672
I0306 15:53:12.301394   531 layer_factory.hpp:77] Creating layer pool5/drop_7x7_s1
I0306 15:53:12.301407   531 net.cpp:94] Creating Layer pool5/drop_7x7_s1
I0306 15:53:12.301414   531 net.cpp:435] pool5/drop_7x7_s1 <- pool5/7x7_s1
I0306 15:53:12.301425   531 net.cpp:396] pool5/drop_7x7_s1 -> pool5/7x7_s1 (in-place)
I0306 15:53:12.301462   531 net.cpp:144] Setting up pool5/drop_7x7_s1
I0306 15:53:12.301473   531 net.cpp:151] Top shape: 32 1024 1 1 (32768)
I0306 15:53:12.301478   531 net.cpp:159] Memory required for data: 1794708744
I0306 15:53:12.301484   531 layer_factory.hpp:77] Creating layer loss3/classifier
I0306 15:53:12.301498   531 net.cpp:94] Creating Layer loss3/classifier
I0306 15:53:12.301504   531 net.cpp:435] loss3/classifier <- pool5/7x7_s1
I0306 15:53:12.301518   531 net.cpp:409] loss3/classifier -> loss3/classifier
I0306 15:53:12.301690   531 net.cpp:144] Setting up loss3/classifier
I0306 15:53:12.301702   531 net.cpp:151] Top shape: 32 3 (96)
I0306 15:53:12.301707   531 net.cpp:159] Memory required for data: 1794709128
I0306 15:53:12.301717   531 layer_factory.hpp:77] Creating layer loss3/loss
I0306 15:53:12.301728   531 net.cpp:94] Creating Layer loss3/loss
I0306 15:53:12.301734   531 net.cpp:435] loss3/loss <- loss3/classifier
I0306 15:53:12.301741   531 net.cpp:435] loss3/loss <- label_train-data_1_split_2
I0306 15:53:12.301749   531 net.cpp:409] loss3/loss -> loss
…
I0306 15:53:12.306380   531 solver.cpp:181] Creating test net (#0) specified by net file: train_val.prototxt
I0306 15:53:12.306632   531 net.cpp:323] The NetState phase (1) differed from the phase (0) specified by a rule in layer train-data
I0306 15:53:12.308045   531 net.cpp:52] Initializing net from parameters:
state {
phase: TEST
}
layer {
name: "val-data"
type: "Data"
top: "data"
top: "label"
include {
phase: TEST
}
transform_param {
mirror: false
crop_size: 224
mean_file: "/opt/DIGITS/digits/jobs/20200306-152817-4bfc/mean.binaryproto"
}
data_param {
source: "/opt/DIGITS/digits/jobs/20200306-152817-4bfc/val_db"
batch_size: 16
backend: LMDB
}
}
layer {
name: "conv1/7x7_s2"
type: "Convolution"
bottom: "data"
top: "conv1/7x7_s2"
param {
lr_mult: 1
decay_mult: 1
}
param {
lr_mult: 2
decay_mult: 0
}
convolution_param {
num_output: 64
pad: 3
kernel_size: 7
stride: 2
weight_filler {
type: "xavier"
std: 0.1
}
bias_filler {
type: "constant"
value: 0.2
}
}
}
layer {
name: "conv1/relu_7x7"
type: "ReLU"
bottom: "conv1/7x7_s2"
top: "conv1/7x7_s2"
}
layer {
name: "pool1/3x3_s2"
type: "Pooling"
bottom: "conv1/7x7_s2"
top: "pool1/3x3_s2"
pooling_param {
pool: MAX
kernel_size: 3
stride: 2
}
}
layer {
name: "pool1/norm1"
type: "LRN"
bottom: "pool1/3x3_s2"
top: "pool1/norm1"
lrn_param {
local_size: 5
alpha: 0.0001
beta: 0.75
}
}
layer {
name: "conv2/3x3_reduce"
type: "Convolution"
bottom: "pool1/norm1"
top: "conv2/3x3_reduce"
param {
lr_mult: 1
decay_mult: 1
}
param {
lr_mult: 2
decay_mult: 0
}
convolution_param {
num_output: 64
kernel_size: 1
weight_filler {
type: "xavier"
std: 0.1
}
bias_filler {
type: "constant"
value: 0.2
}
}
}
layer {
name: "conv2/relu_3x3_reduce"
type: "ReLU"
bottom: "conv2/3x3_reduce"
top: "conv2/3x3_reduce"
}
layer {
name: "conv2/3x3"
type: "Convolution"
bottom: "conv2/3x3_reduce"
top: "conv2/3x3"
param {
lr_mult: 1
decay_mult: 1
}
param {
lr_mult: 2
decay_mult: 0
}
convolution_param {
num_output: 192
pad: 1
kernel_size: 3
weight_filler {
type: "xavier"
std: 0.03
}
bias_filler {
type: "constant"
value: 0.2
}
}
}
layer {
name: "conv2/relu_3x3"
type: "ReLU"
bottom: "conv2/3x3"
top: "conv2/3x3"
}
layer {
name: "conv2/norm2"
type: "LRN"
bottom: "conv2/3x3"
top: "conv2/norm2"
lrn_param {
local_size: 5
alpha: 0.0001
beta: 0.75
}
}
layer {
name: "pool2/3x3_s2"
type: "Pooling"
bottom: "conv2/norm2"
top: "pool2/3x3_s2"
pooling_param {
pool: MAX
kernel_size: 3
stride: 2
}
}
layer {
name: "inception_3a/1x1"
type: "Convolution"
bottom: "pool2/3x3_s2"
top: "inception_3a/1x1"
param {
lr_mult: 1
decay_mult: 1
}
param {
lr_mult: 2
decay_mult: 0
}
convolution_param {
num_output: 64
kernel_size: 1
weight_filler {
type: "xavier"
std: 0.03
}
bias_filler {
type: "constant"
value: 0.2
}
}
}
layer {
name: "inception_3a/relu_1x1"
type: "ReLU"
bottom: "inception_3a/1x1"
top: "inception_3a/1x1"
}
layer {
name: "inception_3a/3x3_reduce"
type: "Convolution"
bottom: "pool2/3x3_s2"
top: "inception_3a/3x3_reduce"
param {
lr_mult: 1
decay_mult: 1
}
param {
lr_mult: 2
decay_mult: 0
}
convolution_param {
num_output: 96
kernel_size: 1
weight_filler {
type: "xavier"
std: 0.09
}
bias_filler {
type: "constant"
value: 0.2
}
}
}
layer {
name: "inception_3a/relu_3x3_reduce"
type: "ReLU"
bottom: "inception_3a/3x3_reduce"
top: "inception_3a/3x3_reduce"
}
layer {
name: "inception_3a/3x3"
type: "Convolution"
bottom: "inception_3a/3x3_reduce"
top: "inception_3a/3x3"
param {
lr_mult: 1
decay_mult: 1
}
param {
lr_mult: 2
decay_mult: 0
}
convolution_param {
num_output: 128
pad: 1
kernel_size: 3
weight_filler {
type: "xavier"
std: 0.03
}
bias_filler {
type: "constant"
value: 0.2
}
}
}
layer {
name: "inception_3a/relu_3x3"
type: "ReLU"
bottom: "inception_3a/3x3"
top: "inception_3a/3x3"
}
layer {
name: "inception_3a/5x5_reduce"
type: "Convolution"
bottom: "pool2/3x3_s2"
top: "inception_3a/5x5_reduce"
param {
lr_mult: 1
decay_mult: 1
}
param {
lr_mult: 2
decay_mult: 0
}
convolution_param {
num_output: 16
kernel_size: 1
weight_filler {
type: "xavier"
std: 0.2
}
bias_filler {
type: "constant"
value: 0.2
}
}
}
layer {
name: "inception_3a/relu_5x5_reduce"
type: "ReLU"
bottom: "inception_3a/5x5_reduce"
top: "inception_3a/5x5_reduce"
}
layer {
name: "inception_3a/5x5"
type: "Convolution"
bottom: "inception_3a/5x5_reduce"
top: "inception_3a/5x5"
param {
lr_mult: 1
decay_mult: 1
}
param {
lr_mult: 2
decay_mult: 0
}
convolution_param {
num_output: 32
pad: 2
kernel_size: 5
weight_filler {
type: "xavier"
std: 0.03
}
bias_filler {
type: "constant"
value: 0.2
}
}
}
layer {
name: "inception_3a/relu_5x5"
type: "ReLU"
bottom: "inception_3a/5x5"
top: "inception_3a/5x5"
}
layer {
name: "inception_3a/pool"
type: "Pooling"
bottom: "pool2/3x3_s2"
top: "inception_3a/pool"
pooling_param {
pool: MAX
kernel_size: 3
stride: 1
pad: 1
}
}
layer {
name: "inception_3a/pool_proj"
type: "Convolution"
bottom: "inception_3a/pool"
top: "inception_3a/pool_proj"
param {
lr_mult: 1
decay_mult: 1
}
param {
lr_mult: 2
decay_mult: 0
}
convolution_param {
num_output: 32
kernel_size: 1
weight_filler {
type: "xavier"
std: 0.1
}
bias_filler {
type: "constant"
value: 0.2
}
}
}
layer {
name: "inception_3a/relu_pool_proj"
type: "ReLU"
bottom: "inception_3a/pool_proj"
top: "inception_3a/pool_proj"
}
layer {
name: "inception_3a/output"
type: "Concat"
bottom: "inception_3a/1x1"
bottom: "inception_3a/3x3"
bottom: "inception_3a/5x5"
bottom: "inception_3a/pool_proj"
top: "inception_3a/output"
}
layer {
name: "inception_3b/1x1"
type: "Convolution"
bottom: "inception_3a/output"
top: "inception_3b/1x1"
param {
lr_mult: 1
decay_mult: 1
}
param {
lr_mult: 2
decay_mult: 0
}
convolution_param {
num_output: 128
kernel_size: 1
weight_filler {
type: "xavier"
std: 0.03
}
bias_filler {
type: "constant"
value: 0.2
}
}
}
layer {
name: "inception_3b/relu_1x1"
type: "ReLU"
bottom: "inception_3b/1x1"
top: "inception_3b/1x1"
}
layer {
name: "inception_3b/3x3_reduce"
type: "Convolution"
bottom: "inception_3a/output"
top: "inception_3b/3x3_reduce"
param {
lr_mult: 1
decay_mult: 1
}
param {
lr_mult: 2
decay_mult: 0
}
convolution_param {
num_output: 128
kernel_size: 1
weight_filler {
type: "xavier"
std: 0.09
}
bias_filler {
type: "constant"
value: 0.2
}
}
}
layer {
name: "inception_3b/relu_3x3_reduce"
type: "ReLU"
bottom: "inception_3b/3x3_reduce"
top: "inception_3b/3x3_reduce"
}
layer {
name: "inception_3b/3x3"
type: "Convolution"
bottom: "inception_3b/3x3_reduce"
top: "inception_3b/3x3"
param {
lr_mult: 1
decay_mult: 1
}
param {
lr_mult: 2
decay_mult: 0
}
convolution_param {
num_output: 192
pad: 1
kernel_size: 3
weight_filler {
type: "xavier"
std: 0.03
}
bias_filler {
type: "constant"
value: 0.2
}
}
}
layer {
name: "inception_3b/relu_3x3"
type: "ReLU"
bottom: "inception_3b/3x3"
top: "inception_3b/3x3"
}
layer {
name: "inception_3b/5x5_reduce"
type: "Convolution"
bottom: "inception_3a/output"
top: "inception_3b/5x5_reduce"
param {
lr_mult: 1
decay_mult: 1
}
param {
lr_mult: 2
decay_mult: 0
}
convolution_param {
num_output: 32
kernel_size: 1
weight_filler {
type: "xavier"
std: 0.2
}
bias_filler {
type: "constant"
value: 0.2
}
}
}
layer {
name: "inception_3b/relu_5x5_reduce"
type: "ReLU"
bottom: "inception_3b/5x5_reduce"
top: "inception_3b/5x5_reduce"
}
layer {
name: "inception_3b/5x5"
type: "Convolution"
bottom: "inception_3b/5x5_reduce"
top: "inception_3b/5x5"
param {
lr_mult: 1
decay_mult: 1
}
param {
lr_mult: 2
decay_mult: 0
}
convolution_param {
num_output: 96
pad: 2
kernel_size: 5
weight_filler {
type: "xavier"
std: 0.03
}
bias_filler {
type: "constant"
value: 0.2
}
}
}
layer {
name: "inception_3b/relu_5x5"
type: "ReLU"
bottom: "inception_3b/5x5"
top: "inception_3b/5x5"
}
layer {
name: "inception_3b/pool"
type: "Pooling"
bottom: "inception_3a/output"
top: "inception_3b/pool"
pooling_param {
pool: MAX
kernel_size: 3
stride: 1
pad: 1
}
}
layer {
name: "inception_3b/pool_proj"
type: "Convolution"
bottom: "inception_3b/pool"
top: "inception_3b/pool_proj"
param {
lr_mult: 1
decay_mult: 1
}
param {
lr_mult: 2
decay_mult: 0
}
convolution_param {
num_output: 64
kernel_size: 1
weight_filler {
type: "xavier"
std: 0.1
}
bias_filler {
type: "constant"
value: 0.2
}
}
}
layer {
name: "inception_3b/relu_pool_proj"
type: "ReLU"
bottom: "inception_3b/pool_proj"
top: "inception_3b/pool_proj"
}
layer {
name: "inception_3b/output"
type: "Concat"
bottom: "inception_3b/1x1"
bottom: "inception_3b/3x3"
bottom: "inception_3b/5x5"
bottom: "inception_3b/pool_proj"
top: "inception_3b/output"
}
layer {
name: "pool3/3x3_s2"
type: "Pooling"
bottom: "inception_3b/output"
top: "pool3/3x3_s2"
pooling_param {
pool: MAX
kernel_size: 3
stride: 2
}
}
layer {
name: "inception_4a/1x1"
type: "Convolution"
bottom: "pool3/3x3_s2"
top: "inception_4a/1x1"
param {
lr_mult: 1
decay_mult: 1
}
param {
lr_mult: 2
decay_mult: 0
}
convolution_param {
num_output: 192
kernel_size: 1
weight_filler {
type: "xavier"
std: 0.03
}
bias_filler {
type: "constant"
value: 0.2
}
}
}
layer {
name: "inception_4a/relu_1x1"
type: "ReLU"
bottom: "inception_4a/1x1"
top: "inception_4a/1x1"
}
layer {
name: "inception_4a/3x3_reduce"
type: "Convolution"
bottom: "pool3/3x3_s2"
top: "inception_4a/3x3_reduce"
param {
lr_mult: 1
decay_mult: 1
}
param {
lr_mult: 2
decay_mult: 0
}
convolution_param {
num_output: 96
kernel_size: 1
weight_filler {
type: "xavier"
std: 0.09
}
bias_filler {
type: "constant"
value: 0.2
}
}
}
layer {
name: "inception_4a/relu_3x3_reduce"
type: "ReLU"
bottom: "inception_4a/3x3_reduce"
top: "inception_4a/3x3_reduce"
}
layer {
name: "inception_4a/3x3"
type: "Convolution"
bottom: "inception_4a/3x3_reduce"
top: "inception_4a/3x3"
param {
lr_mult: 1
decay_mult: 1
}
param {
lr_mult: 2
decay_mult: 0
}
convolution_param {
num_output: 208
pad: 1
kernel_size: 3
weight_filler {
type: "xavier"
std: 0.03
}
bias_filler {
type: "constant"
value: 0.2
}
}
}
layer {
name: "inception_4a/relu_3x3"
type: "ReLU"
bottom: "inception_4a/3x3"
top: "inception_4a/3x3"
}
layer {
name: "inception_4a/5x5_reduce"
type: "Convolution"
bottom: "pool3/3x3_s2"
top: "inception_4a/5x5_reduce"
param {
lr_mult: 1
decay_mult: 1
}
param {
lr_mult: 2
decay_mult: 0
}
convolution_param {
num_output: 16
kernel_size: 1
weight_filler {
type: "xavier"
std: 0.2
}
bias_filler {
type: "constant"
value: 0.2
}
}
}
layer {
name: "inception_4a/relu_5x5_reduce"
type: "ReLU"
bottom: "inception_4a/5x5_reduce"
top: "inception_4a/5x5_reduce"
}
layer {
name: "inception_4a/5x5"
type: "Convolution"
bottom: "inception_4a/5x5_reduce"
top: "inception_4a/5x5"
param {
lr_mult: 1
decay_mult: 1
}
param {
lr_mult: 2
decay_mult: 0
}
convolution_param {
num_output: 48
pad: 2
kernel_size: 5
weight_filler {
type: "xavier"
std: 0.03
}
bias_filler {
type: "constant"
value: 0.2
}
}
}
layer {
name: "inception_4a/relu_5x5"
type: "ReLU"
bottom: "inception_4a/5x5"
top: "inception_4a/5x5"
}
layer {
name: "inception_4a/pool"
type: "Pooling"
bottom: "pool3/3x3_s2"
top: "inception_4a/pool"
pooling_param {
pool: MAX
kernel_size: 3
stride: 1
pad: 1
}
}
layer {
name: "inception_4a/pool_proj"
type: "Convolution"
bottom: "inception_4a/pool"
top: "inception_4a/pool_proj"
param {
lr_mult: 1
decay_mult: 1
}
param {
lr_mult: 2
decay_mult: 0
}
convolution_param {
num_output: 64
kernel_size: 1
weight_filler {
type: "xavier"
std: 0.1
}
bias_filler {
type: "constant"
value: 0.2
}
}
}
layer {
name: "inception_4a/relu_pool_proj"
type: "ReLU"
bottom: "inception_4a/pool_proj"
top: "inception_4a/pool_proj"
}
layer {
name: "inception_4a/output"
type: "Concat"
bottom: "inception_4a/1x1"
bottom: "inception_4a/3x3"
bottom: "inception_4a/5x5"
bottom: "inception_4a/pool_proj"
top: "inception_4a/output"
}
layer {
name: "loss1/ave_pool"
type: "Pooling"
bottom: "inception_4a/output"
top: "loss1/ave_pool"
pooling_param {
pool: AVE
kernel_size: 5
stride: 3
}
}
layer {
name: "loss1/conv"
type: "Convolution"
bottom: "loss1/ave_pool"
top: "loss1/conv"
param {
lr_mult: 1
decay_mult: 1
}
param {
lr_mult: 2
decay_mult: 0
}
convolution_param {
num_output: 128
kernel_size: 1
weight_filler {
type: "xavier"
std: 0.08
}
bias_filler {
type: "constant"
value: 0.2
}
}
}
layer {
name: "loss1/relu_conv"
type: "ReLU"
bottom: "loss1/conv"
top: "loss1/conv"
}
layer {
name: "loss1/fc"
type: "InnerProduct"
bottom: "loss1/conv"
top: "loss1/fc"
param {
lr_mult: 1
decay_mult: 1
}
param {
lr_mult: 2
decay_mult: 0
}
inner_product_param {
num_output: 1024
weight_filler {
type: "xavier"
std: 0.02
}
bias_filler {
type: "constant"
value: 0.2
}
}
}
layer {
name: "loss1/relu_fc"
type: "ReLU"
bottom: "loss1/fc"
top: "loss1/fc"
}
layer {
name: "loss1/drop_fc"
type: "Dropout"
bottom: "loss1/fc"
top: "loss1/fc"
dropout_param {
dropout_ratio: 0.7
}
}
layer {
name: "loss1/classifier"
type: "InnerProduct"
bottom: "loss1/fc"
top: "loss1/classifier"
param {
lr_mult: 1
decay_mult: 1
}
param {
lr_mult: 2
decay_mult: 0
}
inner_product_param {
num_output: 3
weight_filler {
type: "xavier"
std: 0.0009765625
}
bias_filler {
type: "constant"
value: 0
}
}
}
layer {
name: "loss1/loss"
type: "SoftmaxWithLoss"
bottom: "loss1/classifier"
bottom: "label"
top: "loss1/loss"
loss_weight: 0.3
}
layer {
name: "loss1/top-1"
type: "Accuracy"
bottom: "loss1/classifier"
bottom: "label"
top: "loss1/accuracy"
include {
phase: TEST
}
}
layer {
name: "inception_4b/1x1"
type: "Convolution"
bottom: "inception_4a/output"
top: "inception_4b/1x1"
param {
lr_mult: 1
decay_mult: 1
}
param {
lr_mult: 2
decay_mult: 0
}
convolution_param {
num_output: 160
kernel_size: 1
weight_filler {
type: "xavier"
std: 0.03
}
bias_filler {
type: "constant"
value: 0.2
}
}
}
layer {
name: "inception_4b/relu_1x1"
type: "ReLU"
bottom: "inception_4b/1x1"
top: "inception_4b/1x1"
}
layer {
name: "inception_4b/3x3_reduce"
type: "Convolution"
bottom: "inception_4a/output"
top: "inception_4b/3x3_reduce"
param {
lr_mult: 1
decay_mult: 1
}
param {
lr_mult: 2
decay_mult: 0
}
convolution_param {
num_output: 112
kernel_size: 1
weight_filler {
type: "xavier"
std: 0.09
}
bias_filler {
type: "constant"
value: 0.2
}
}
}
layer {
name: "inception_4b/relu_3x3_reduce"
type: "ReLU"
bottom: "inception_4b/3x3_reduce"
top: "inception_4b/3x3_reduce"
}
layer {
name: "inception_4b/3x3"
type: "Convolution"
bottom: "inception_4b/3x3_reduce"
top: "inception_4b/3x3"
param {
lr_mult: 1
decay_mult: 1
}
param {
lr_mult: 2
decay_mult: 0
}
convolution_param {
num_output: 224
pad: 1
kernel_size: 3
weight_filler {
type: "xavier"
std: 0.03
}
bias_filler {
type: "constant"
value: 0.2
}
}
}
layer {
name: "inception_4b/relu_3x3"
type: "ReLU"
bottom: "inception_4b/3x3"
top: "inception_4b/3x3"
}
layer {
name: "inception_4b/5x5_reduce"
type: "Convolution"
bottom: "inception_4a/output"
top: "inception_4b/5x5_reduce"
param {
lr_mult: 1
decay_mult: 1
}
param {
lr_mult: 2
decay_mult: 0
}
convolution_param {
num_output: 24
kernel_size: 1
weight_filler {
type: "xavier"
std: 0.2
}
bias_filler {
type: "constant"
value: 0.2
}
}
}
layer {
name: "inception_4b/relu_5x5_reduce"
type: "ReLU"
bottom: "inception_4b/5x5_reduce"
top: "inception_4b/5x5_reduce"
}
layer {
name: "inception_4b/5x5"
type: "Convolution"
bottom: "inception_4b/5x5_reduce"
top: "inception_4b/5x5"
param {
lr_mult: 1
decay_mult: 1
}
param {
lr_mult: 2
decay_mult: 0
}
convolution_param {
num_output: 64
pad: 2
kernel_size: 5
weight_filler {
type: "xavier"
std: 0.03
}
bias_filler {
type: "constant"
value: 0.2
}
}
}
layer {
name: "inception_4b/relu_5x5"
type: "ReLU"
bottom: "inception_4b/5x5"
top: "inception_4b/5x5"
}
layer {
name: "inception_4b/pool"
type: "Pooling"
bottom: "inception_4a/output"
top: "inception_4b/pool"
pooling_param {
pool: MAX
kernel_size: 3
stride: 1
pad: 1
}
}
layer {
name: "inception_4b/pool_proj"
type: "Convolution"
bottom: "inception_4b/pool"
top: "inception_4b/pool_proj"
param {
lr_mult: 1
decay_mult: 1
}
param {
lr_mult: 2
decay_mult: 0
}
convolution_param {
num_output: 64
kernel_size: 1
weight_filler {
type: "xavier"
std: 0.1
}
bias_filler {
type: "constant"
value: 0.2
}
}
}
layer {
name: "inception_4b/relu_pool_proj"
type: "ReLU"
bottom: "inception_4b/pool_proj"
top: "inception_4b/pool_proj"
}
layer {
name: "inception_4b/output"
type: "Concat"
bottom: "inception_4b/1x1"
bottom: "inception_4b/3x3"
bottom: "inception_4b/5x5"
bottom: "inception_4b/pool_proj"
top: "inception_4b/output"
}
layer {
name: "inception_4c/1x1"
type: "Convolution"
bottom: "inception_4b/output"
top: "inception_4c/1x1"
param {
lr_mult: 1
decay_mult: 1
}
param {
lr_mult: 2
decay_mult: 0
}
convolution_param {
num_output: 128
kernel_size: 1
weight_filler {
type: "xavier"
std: 0.03
}
bias_filler {
type: "constant"
value: 0.2
}
}
}
layer {
name: "inception_4c/relu_1x1"
type: "ReLU"
bottom: "inception_4c/1x1"
top: "inception_4c/1x1"
}
layer {
name: "inception_4c/3x3_reduce"
type: "Convolution"
bottom: "inception_4b/output"
top: "inception_4c/3x3_reduce"
param {
lr_mult: 1
decay_mult: 1
}
param {
lr_mult: 2
decay_mult: 0
}
convolution_param {
num_output: 128
kernel_size: 1
weight_filler {
type: "xavier"
std: 0.09
}
bias_filler {
type: "constant"
value: 0.2
}
}
}
layer {
name: "inception_4c/relu_3x3_reduce"
type: "ReLU"
bottom: "inception_4c/3x3_reduce"
top: "inception_4c/3x3_reduce"
}
layer {
name: "inception_4c/3x3"
type: "Convolution"
bottom: "inception_4c/3x3_reduce"
top: "inception_4c/3x3"
param {
lr_mult: 1
decay_mult: 1
}
param {
lr_mult: 2
decay_mult: 0
}
convolution_param {
num_output: 256
pad: 1
kernel_size: 3
weight_filler {
type: "xavier"
std: 0.03
}
bias_filler {
type: "constant"
value: 0.2
}
}
}
layer {
name: "inception_4c/relu_3x3"
type: "ReLU"
bottom: "inception_4c/3x3"
top: "inception_4c/3x3"
}
layer {
name: "inception_4c/5x5_reduce"
type: "Convolution"
bottom: "inception_4b/output"
top: "inception_4c/5x5_reduce"
param {
lr_mult: 1
decay_mult: 1
}
param {
lr_mult: 2
decay_mult: 0
}
convolution_param {
num_output: 24
kernel_size: 1
weight_filler {
type: "xavier"
std: 0.2
}
bias_filler {
type: "constant"
value: 0.2
}
}
}
layer {
name: "inception_4c/relu_5x5_reduce"
type: "ReLU"
bottom: "inception_4c/5x5_reduce"
top: "inception_4c/5x5_reduce"
}
layer {
name: "inception_4c/5x5"
type: "Convolution"
bottom: "inception_4c/5x5_reduce"
top: "inception_4c/5x5"
param {
lr_mult: 1
decay_mult: 1
}
param {
lr_mult: 2
decay_mult: 0
}
convolution_param {
num_output: 64
pad: 2
kernel_size: 5
weight_filler {
type: "xavier"
std: 0.03
}
bias_filler {
type: "constant"
value: 0.2
}
}
}
layer {
name: "inception_4c/relu_5x5"
type: "ReLU"
bottom: "inception_4c/5x5"
top: "inception_4c/5x5"
}
layer {
name: "inception_4c/pool"
type: "Pooling"
bottom: "inception_4b/output"
top: "inception_4c/pool"
pooling_param {
pool: MAX
kernel_size: 3
stride: 1
pad: 1
}
}
layer {
name: "inception_4c/pool_proj"
type: "Convolution"
bottom: "inception_4c/pool"
top: "inception_4c/pool_proj"
param {
lr_mult: 1
decay_mult: 1
}
param {
lr_mult: 2
decay_mult: 0
}
convolution_param {
num_output: 64
kernel_size: 1
weight_filler {
type: "xavier"
std: 0.1
}
bias_filler {
type: "constant"
value: 0.2
}
}
}
layer {
name: "inception_4c/relu_pool_proj"
type: "ReLU"
bottom: "inception_4c/pool_proj"
top: "inception_4c/pool_proj"
}
layer {
name: "inception_4c/output"
type: "Concat"
bottom: "inception_4c/1x1"
bottom: "inception_4c/3x3"
bottom: "inception_4c/5x5"
bottom: "inception_4c/pool_proj"
top: "inception_4c/output"
}
layer {
name: "inception_4d/1x1"
type: "Convolution"
bottom: "inception_4c/output"
top: "inception_4d/1x1"
param {
lr_mult: 1
decay_mult: 1
}
param {
lr_mult: 2
decay_mult: 0
}
convolution_param {
num_output: 112
kernel_size: 1
weight_filler {
type: "xavier"
std: 0.03
}
bias_filler {
type: "constant"
value: 0.2
}
}
}
layer {
name: "inception_4d/relu_1x1"
type: "ReLU"
bottom: "inception_4d/1x1"
…
I0306 15:53:12.431227   531 net.cpp:159] Memory required for data: 699835400
I0306 15:53:12.431233   531 layer_factory.hpp:77] Creating layer inception_4c/relu_5x5
I0306 15:53:12.431255   531 net.cpp:94] Creating Layer inception_4c/relu_5x5
I0306 15:53:12.431260   531 net.cpp:435] inception_4c/relu_5x5 <- inception_4c/5x5
I0306 15:53:12.431267   531 net.cpp:396] inception_4c/relu_5x5 -> inception_4c/5x5 (in-place)
I0306 15:53:12.431274   531 net.cpp:144] Setting up inception_4c/relu_5x5
I0306 15:53:12.431279   531 net.cpp:151] Top shape: 16 64 14 14 (200704)
I0306 15:53:12.431282   531 net.cpp:159] Memory required for data: 700638216
I0306 15:53:12.431286   531 layer_factory.hpp:77] Creating layer inception_4c/pool
I0306 15:53:12.431293   531 net.cpp:94] Creating Layer inception_4c/pool
I0306 15:53:12.431298   531 net.cpp:435] inception_4c/pool <- inception_4b/output_inception_4b/output_0_split_3
I0306 15:53:12.431303   531 net.cpp:409] inception_4c/pool -> inception_4c/pool
I0306 15:53:12.431346   531 net.cpp:144] Setting up inception_4c/pool
I0306 15:53:12.431352   531 net.cpp:151] Top shape: 16 512 14 14 (1605632)
I0306 15:53:12.431356   531 net.cpp:159] Memory required for data: 707060744
I0306 15:53:12.431360   531 layer_factory.hpp:77] Creating layer inception_4c/pool_proj
I0306 15:53:12.431370   531 net.cpp:94] Creating Layer inception_4c/pool_proj
I0306 15:53:12.431373   531 net.cpp:435] inception_4c/pool_proj <- inception_4c/pool
I0306 15:53:12.431380   531 net.cpp:409] inception_4c/pool_proj -> inception_4c/pool_proj
I0306 15:53:12.431798   531 net.cpp:144] Setting up inception_4c/pool_proj
I0306 15:53:12.431808   531 net.cpp:151] Top shape: 16 64 14 14 (200704)
I0306 15:53:12.431811   531 net.cpp:159] Memory required for data: 707863560
I0306 15:53:12.431818   531 layer_factory.hpp:77] Creating layer inception_4c/relu_pool_proj
I0306 15:53:12.431823   531 net.cpp:94] Creating Layer inception_4c/relu_pool_proj
I0306 15:53:12.431828   531 net.cpp:435] inception_4c/relu_pool_proj <- inception_4c/pool_proj
I0306 15:53:12.431833   531 net.cpp:396] inception_4c/relu_pool_proj -> inception_4c/pool_proj (in-place)
I0306 15:53:12.431840   531 net.cpp:144] Setting up inception_4c/relu_pool_proj
I0306 15:53:12.431845   531 net.cpp:151] Top shape: 16 64 14 14 (200704)
I0306 15:53:12.431849   531 net.cpp:159] Memory required for data: 708666376
I0306 15:53:12.431851   531 layer_factory.hpp:77] Creating layer inception_4c/output
I0306 15:53:12.431857   531 net.cpp:94] Creating Layer inception_4c/output
I0306 15:53:12.431861   531 net.cpp:435] inception_4c/output <- inception_4c/1x1
I0306 15:53:12.431865   531 net.cpp:435] inception_4c/output <- inception_4c/3x3
I0306 15:53:12.431869   531 net.cpp:435] inception_4c/output <- inception_4c/5x5
I0306 15:53:12.431874   531 net.cpp:435] inception_4c/output <- inception_4c/pool_proj
I0306 15:53:12.431879   531 net.cpp:409] inception_4c/output -> inception_4c/output
I0306 15:53:12.431902   531 net.cpp:144] Setting up inception_4c/output
I0306 15:53:12.431908   531 net.cpp:151] Top shape: 16 512 14 14 (1605632)
I0306 15:53:12.431912   531 net.cpp:159] Memory required for data: 715088904
I0306 15:53:12.431915   531 layer_factory.hpp:77] Creating layer inception_4c/output_inception_4c/output_0_split
I0306 15:53:12.431922   531 net.cpp:94] Creating Layer inception_4c/output_inception_4c/output_0_split
I0306 15:53:12.431926   531 net.cpp:435] inception_4c/output_inception_4c/output_0_split <- inception_4c/output
I0306 15:53:12.431932   531 net.cpp:409] inception_4c/output_inception_4c/output_0_split -> inception_4c/output_inception_4c/output_0_split_0
I0306 15:53:12.431939   531 net.cpp:409] inception_4c/output_inception_4c/output_0_split -> inception_4c/output_inception_4c/output_0_split_1
I0306 15:53:12.431946   531 net.cpp:409] inception_4c/output_inception_4c/output_0_split -> inception_4c/output_inception_4c/output_0_split_2
I0306 15:53:12.431952   531 net.cpp:409] inception_4c/output_inception_4c/output_0_split -> inception_4c/output_inception_4c/output_0_split_3
I0306 15:53:12.432004   531 net.cpp:144] Setting up inception_4c/output_inception_4c/output_0_split
I0306 15:53:12.432010   531 net.cpp:151] Top shape: 16 512 14 14 (1605632)
I0306 15:53:12.432026   531 net.cpp:151] Top shape: 16 512 14 14 (1605632)
I0306 15:53:12.432030   531 net.cpp:151] Top shape: 16 512 14 14 (1605632)
I0306 15:53:12.432034   531 net.cpp:151] Top shape: 16 512 14 14 (1605632)
I0306 15:53:12.432037   531 net.cpp:159] Memory required for data: 740779016
I0306 15:53:12.432041   531 layer_factory.hpp:77] Creating layer inception_4d/1x1
I0306 15:53:12.432050   531 net.cpp:94] Creating Layer inception_4d/1x1
I0306 15:53:12.432054   531 net.cpp:435] inception_4d/1x1 <- inception_4c/output_inception_4c/output_0_split_0
I0306 15:53:12.432061   531 net.cpp:409] inception_4d/1x1 -> inception_4d/1x1
I0306 15:53:12.433552   531 net.cpp:144] Setting up inception_4d/1x1
I0306 15:53:12.433573   531 net.cpp:151] Top shape: 16 112 14 14 (351232)
I0306 15:53:12.433578   531 net.cpp:159] Memory required for data: 742183944
I0306 15:53:12.433588   531 layer_factory.hpp:77] Creating layer inception_4d/relu_1x1
I0306 15:53:12.433598   531 net.cpp:94] Creating Layer inception_4d/relu_1x1
I0306 15:53:12.433604   531 net.cpp:435] inception_4d/relu_1x1 <- inception_4d/1x1
I0306 15:53:12.433625   531 net.cpp:396] inception_4d/relu_1x1 -> inception_4d/1x1 (in-place)
I0306 15:53:12.433638   531 net.cpp:144] Setting up inception_4d/relu_1x1
I0306 15:53:12.433646   531 net.cpp:151] Top shape: 16 112 14 14 (351232)
I0306 15:53:12.433651   531 net.cpp:159] Memory required for data: 743588872
I0306 15:53:12.433656   531 layer_factory.hpp:77] Creating layer inception_4d/3x3_reduce
I0306 15:53:12.433670   531 net.cpp:94] Creating Layer inception_4d/3x3_reduce
I0306 15:53:12.433676   531 net.cpp:435] inception_4d/3x3_reduce <- inception_4c/output_inception_4c/output_0_split_1
I0306 15:53:12.433686   531 net.cpp:409] inception_4d/3x3_reduce -> inception_4d/3x3_reduce
I0306 15:53:12.434895   531 net.cpp:144] Setting up inception_4d/3x3_reduce
I0306 15:53:12.434913   531 net.cpp:151] Top shape: 16 144 14 14 (451584)
I0306 15:53:12.434919   531 net.cpp:159] Memory required for data: 745395208
I0306 15:53:12.434928   531 layer_factory.hpp:77] Creating layer inception_4d/relu_3x3_reduce
I0306 15:53:12.434938   531 net.cpp:94] Creating Layer inception_4d/relu_3x3_reduce
I0306 15:53:12.434945   531 net.cpp:435] inception_4d/relu_3x3_reduce <- inception_4d/3x3_reduce
I0306 15:53:12.434954   531 net.cpp:396] inception_4d/relu_3x3_reduce -> inception_4d/3x3_reduce (in-place)
I0306 15:53:12.434965   531 net.cpp:144] Setting up inception_4d/relu_3x3_reduce
I0306 15:53:12.434973   531 net.cpp:151] Top shape: 16 144 14 14 (451584)
I0306 15:53:12.434978   531 net.cpp:159] Memory required for data: 747201544
I0306 15:53:12.434984   531 layer_factory.hpp:77] Creating layer inception_4d/3x3
I0306 15:53:12.434998   531 net.cpp:94] Creating Layer inception_4d/3x3
I0306 15:53:12.435003   531 net.cpp:435] inception_4d/3x3 <- inception_4d/3x3_reduce
I0306 15:53:12.435014   531 net.cpp:409] inception_4d/3x3 -> inception_4d/3x3
I0306 15:53:12.440274   531 net.cpp:144] Setting up inception_4d/3x3
I0306 15:53:12.440297   531 net.cpp:151] Top shape: 16 288 14 14 (903168)
I0306 15:53:12.440310   531 net.cpp:159] Memory required for data: 750814216
I0306 15:53:12.440320   531 layer_factory.hpp:77] Creating layer inception_4d/relu_3x3
I0306 15:53:12.440330   531 net.cpp:94] Creating Layer inception_4d/relu_3x3
I0306 15:53:12.440336   531 net.cpp:435] inception_4d/relu_3x3 <- inception_4d/3x3
I0306 15:53:12.440346   531 net.cpp:396] inception_4d/relu_3x3 -> inception_4d/3x3 (in-place)
I0306 15:53:12.440358   531 net.cpp:144] Setting up inception_4d/relu_3x3
I0306 15:53:12.440366   531 net.cpp:151] Top shape: 16 288 14 14 (903168)
I0306 15:53:12.440371   531 net.cpp:159] Memory required for data: 754426888
I0306 15:53:12.440376   531 layer_factory.hpp:77] Creating layer inception_4d/5x5_reduce
I0306 15:53:12.440390   531 net.cpp:94] Creating Layer inception_4d/5x5_reduce
I0306 15:53:12.440397   531 net.cpp:435] inception_4d/5x5_reduce <- inception_4c/output_inception_4c/output_0_split_2
I0306 15:53:12.440407   531 net.cpp:409] inception_4d/5x5_reduce -> inception_4d/5x5_reduce
I0306 15:53:12.440938   531 net.cpp:144] Setting up inception_4d/5x5_reduce
I0306 15:53:12.440953   531 net.cpp:151] Top shape: 16 32 14 14 (100352)
I0306 15:53:12.440959   531 net.cpp:159] Memory required for data: 754828296
I0306 15:53:12.440968   531 layer_factory.hpp:77] Creating layer inception_4d/relu_5x5_reduce
I0306 15:53:12.440979   531 net.cpp:94] Creating Layer inception_4d/relu_5x5_reduce
I0306 15:53:12.440984   531 net.cpp:435] inception_4d/relu_5x5_reduce <- inception_4d/5x5_reduce
I0306 15:53:12.440994   531 net.cpp:396] inception_4d/relu_5x5_reduce -> inception_4d/5x5_reduce (in-place)
I0306 15:53:12.441004   531 net.cpp:144] Setting up inception_4d/relu_5x5_reduce
I0306 15:53:12.441013   531 net.cpp:151] Top shape: 16 32 14 14 (100352)
I0306 15:53:12.441020   531 net.cpp:159] Memory required for data: 755229704
I0306 15:53:12.441025   531 layer_factory.hpp:77] Creating layer inception_4d/5x5
I0306 15:53:12.441042   531 net.cpp:94] Creating Layer inception_4d/5x5
I0306 15:53:12.441048   531 net.cpp:435] inception_4d/5x5 <- inception_4d/5x5_reduce
I0306 15:53:12.441058   531 net.cpp:409] inception_4d/5x5 -> inception_4d/5x5
I0306 15:53:12.441918   531 net.cpp:144] Setting up inception_4d/5x5
I0306 15:53:12.441933   531 net.cpp:151] Top shape: 16 64 14 14 (200704)
I0306 15:53:12.441938   531 net.cpp:159] Memory required for data: 756032520
I0306 15:53:12.441947   531 layer_factory.hpp:77] Creating layer inception_4d/relu_5x5
I0306 15:53:12.441957   531 net.cpp:94] Creating Layer inception_4d/relu_5x5
I0306 15:53:12.441963   531 net.cpp:435] inception_4d/relu_5x5 <- inception_4d/5x5
I0306 15:53:12.441972   531 net.cpp:396] inception_4d/relu_5x5 -> inception_4d/5x5 (in-place)
I0306 15:53:12.441983   531 net.cpp:144] Setting up inception_4d/relu_5x5
I0306 15:53:12.441990   531 net.cpp:151] Top shape: 16 64 14 14 (200704)
I0306 15:53:12.441995   531 net.cpp:159] Memory required for data: 756835336
I0306 15:53:12.442001   531 layer_factory.hpp:77] Creating layer inception_4d/pool
I0306 15:53:12.442019   531 net.cpp:94] Creating Layer inception_4d/pool
I0306 15:53:12.442025   531 net.cpp:435] inception_4d/pool <- inception_4c/output_inception_4c/output_0_split_3
I0306 15:53:12.442035   531 net.cpp:409] inception_4d/pool -> inception_4d/pool
I0306 15:53:12.442088   531 net.cpp:144] Setting up inception_4d/pool
I0306 15:53:12.442106   531 net.cpp:151] Top shape: 16 512 14 14 (1605632)
I0306 15:53:12.442111   531 net.cpp:159] Memory required for data: 763257864
I0306 15:53:12.442116   531 layer_factory.hpp:77] Creating layer inception_4d/pool_proj
I0306 15:53:12.442140   531 net.cpp:94] Creating Layer inception_4d/pool_proj
I0306 15:53:12.442147   531 net.cpp:435] inception_4d/pool_proj <- inception_4d/pool
I0306 15:53:12.442157   531 net.cpp:409] inception_4d/pool_proj -> inception_4d/pool_proj
I0306 15:53:12.442821   531 net.cpp:144] Setting up inception_4d/pool_proj
I0306 15:53:12.442836   531 net.cpp:151] Top shape: 16 64 14 14 (200704)
I0306 15:53:12.442842   531 net.cpp:159] Memory required for data: 764060680
I0306 15:53:12.442852   531 layer_factory.hpp:77] Creating layer inception_4d/relu_pool_proj
I0306 15:53:12.442860   531 net.cpp:94] Creating Layer inception_4d/relu_pool_proj
I0306 15:53:12.442867   531 net.cpp:435] inception_4d/relu_pool_proj <- inception_4d/pool_proj
I0306 15:53:12.442878   531 net.cpp:396] inception_4d/relu_pool_proj -> inception_4d/pool_proj (in-place)
I0306 15:53:12.442888   531 net.cpp:144] Setting up inception_4d/relu_pool_proj
I0306 15:53:12.442895   531 net.cpp:151] Top shape: 16 64 14 14 (200704)
I0306 15:53:12.442900   531 net.cpp:159] Memory required for data: 764863496
I0306 15:53:12.442906   531 layer_factory.hpp:77] Creating layer inception_4d/output
I0306 15:53:12.442915   531 net.cpp:94] Creating Layer inception_4d/output
I0306 15:53:12.442921   531 net.cpp:435] inception_4d/output <- inception_4d/1x1
I0306 15:53:12.442929   531 net.cpp:435] inception_4d/output <- inception_4d/3x3
I0306 15:53:12.442935   531 net.cpp:435] inception_4d/output <- inception_4d/5x5
I0306 15:53:12.442958   531 net.cpp:435] inception_4d/output <- inception_4d/pool_proj
I0306 15:53:12.442968   531 net.cpp:409] inception_4d/output -> inception_4d/output
I0306 15:53:12.443006   531 net.cpp:144] Setting up inception_4d/output
I0306 15:53:12.443017   531 net.cpp:151] Top shape: 16 528 14 14 (1655808)
I0306 15:53:12.443022   531 net.cpp:159] Memory required for data: 771486728
I0306 15:53:12.443027   531 layer_factory.hpp:77] Creating layer inception_4d/output_inception_4d/output_0_split
I0306 15:53:12.443038   531 net.cpp:94] Creating Layer inception_4d/output_inception_4d/output_0_split
I0306 15:53:12.443044   531 net.cpp:435] inception_4d/output_inception_4d/output_0_split <- inception_4d/output
I0306 15:53:12.443056   531 net.cpp:409] inception_4d/output_inception_4d/output_0_split -> inception_4d/output_inception_4d/output_0_split_0
I0306 15:53:12.443094   531 net.cpp:409] inception_4d/output_inception_4d/output_0_split -> inception_4d/output_inception_4d/output_0_split_1
I0306 15:53:12.443104   531 net.cpp:409] inception_4d/output_inception_4d/output_0_split -> inception_4d/output_inception_4d/output_0_split_2
I0306 15:53:12.443116   531 net.cpp:409] inception_4d/output_inception_4d/output_0_split -> inception_4d/output_inception_4d/output_0_split_3
I0306 15:53:12.443126   531 net.cpp:409] inception_4d/output_inception_4d/output_0_split -> inception_4d/output_inception_4d/output_0_split_4
I0306 15:53:12.443218   531 net.cpp:144] Setting up inception_4d/output_inception_4d/output_0_split
I0306 15:53:12.443236   531 net.cpp:151] Top shape: 16 528 14 14 (1655808)
I0306 15:53:12.443243   531 net.cpp:151] Top shape: 16 528 14 14 (1655808)
I0306 15:53:12.443249   531 net.cpp:151] Top shape: 16 528 14 14 (1655808)
I0306 15:53:12.443256   531 net.cpp:151] Top shape: 16 528 14 14 (1655808)
I0306 15:53:12.443264   531 net.cpp:151] Top shape: 16 528 14 14 (1655808)
I0306 15:53:12.443269   531 net.cpp:159] Memory required for data: 804602888
I0306 15:53:12.443274   531 layer_factory.hpp:77] Creating layer loss2/ave_pool
I0306 15:53:12.443290   531 net.cpp:94] Creating Layer loss2/ave_pool
I0306 15:53:12.443296   531 net.cpp:435] loss2/ave_pool <- inception_4d/output_inception_4d/output_0_split_0
I0306 15:53:12.443306   531 net.cpp:409] loss2/ave_pool -> loss2/ave_pool
I0306 15:53:12.443342   531 net.cpp:144] Setting up loss2/ave_pool
I0306 15:53:12.443351   531 net.cpp:151] Top shape: 16 528 4 4 (135168)
I0306 15:53:12.443356   531 net.cpp:159] Memory required for data: 805143560
I0306 15:53:12.443362   531 layer_factory.hpp:77] Creating layer loss2/conv
I0306 15:53:12.443377   531 net.cpp:94] Creating Layer loss2/conv
I0306 15:53:12.443382   531 net.cpp:435] loss2/conv <- loss2/ave_pool
I0306 15:53:12.443392   531 net.cpp:409] loss2/conv -> loss2/conv
I0306 15:53:12.445420   531 net.cpp:144] Setting up loss2/conv
I0306 15:53:12.445441   531 net.cpp:151] Top shape: 16 128 4 4 (32768)
I0306 15:53:12.445447   531 net.cpp:159] Memory required for data: 805274632
I0306 15:53:12.445457   531 layer_factory.hpp:77] Creating layer loss2/relu_conv
I0306 15:53:12.445466   531 net.cpp:94] Creating Layer loss2/relu_conv
I0306 15:53:12.445473   531 net.cpp:435] loss2/relu_conv <- loss2/conv
I0306 15:53:12.445482   531 net.cpp:396] loss2/relu_conv -> loss2/conv (in-place)
I0306 15:53:12.445494   531 net.cpp:144] Setting up loss2/relu_conv
I0306 15:53:12.445502   531 net.cpp:151] Top shape: 16 128 4 4 (32768)
I0306 15:53:12.445506   531 net.cpp:159] Memory required for data: 805405704
I0306 15:53:12.445511   531 layer_factory.hpp:77] Creating layer loss2/fc
I0306 15:53:12.445523   531 net.cpp:94] Creating Layer loss2/fc
I0306 15:53:12.445528   531 net.cpp:435] loss2/fc <- loss2/conv
I0306 15:53:12.445538   531 net.cpp:409] loss2/fc -> loss2/fc
I0306 15:53:12.473656   531 net.cpp:144] Setting up loss2/fc
I0306 15:53:12.473692   531 net.cpp:151] Top shape: 16 1024 (16384)
I0306 15:53:12.473700   531 net.cpp:159] Memory required for data: 805471240
I0306 15:53:12.473716   531 layer_factory.hpp:77] Creating layer loss2/relu_fc
I0306 15:53:12.473757   531 net.cpp:94] Creating Layer loss2/relu_fc
I0306 15:53:12.473767   531 net.cpp:435] loss2/relu_fc <- loss2/fc
I0306 15:53:12.473780   531 net.cpp:396] loss2/relu_fc -> loss2/fc (in-place)
I0306 15:53:12.473801   531 net.cpp:144] Setting up loss2/relu_fc
I0306 15:53:12.473810   531 net.cpp:151] Top shape: 16 1024 (16384)
I0306 15:53:12.473816   531 net.cpp:159] Memory required for data: 805536776
I0306 15:53:12.473822   531 layer_factory.hpp:77] Creating layer loss2/drop_fc
I0306 15:53:12.473834   531 net.cpp:94] Creating Layer loss2/drop_fc
I0306 15:53:12.473840   531 net.cpp:435] loss2/drop_fc <- loss2/fc
I0306 15:53:12.473851   531 net.cpp:396] loss2/drop_fc -> loss2/fc (in-place)
I0306 15:53:12.473903   531 net.cpp:144] Setting up loss2/drop_fc
I0306 15:53:12.473917   531 net.cpp:151] Top shape: 16 1024 (16384)
I0306 15:53:12.473922   531 net.cpp:159] Memory required for data: 805602312
I0306 15:53:12.473927   531 layer_factory.hpp:77] Creating layer loss2/classifier
I0306 15:53:12.473942   531 net.cpp:94] Creating Layer loss2/classifier
I0306 15:53:12.473948   531 net.cpp:435] loss2/classifier <- loss2/fc
I0306 15:53:12.473968   531 net.cpp:409] loss2/classifier -> loss2/classifier
I0306 15:53:12.474215   531 net.cpp:144] Setting up loss2/classifier
I0306 15:53:12.474232   531 net.cpp:151] Top shape: 16 3 (48)
I0306 15:53:12.474239   531 net.cpp:159] Memory required for data: 805602504
I0306 15:53:12.474249   531 layer_factory.hpp:77] Creating layer loss2/classifier_loss2/classifier_0_split
I0306 15:53:12.474262   531 net.cpp:94] Creating Layer loss2/classifier_loss2/classifier_0_split
I0306 15:53:12.474272   531 net.cpp:435] loss2/classifier_loss2/classifier_0_split <- loss2/classifier
I0306 15:53:12.474282   531 net.cpp:409] loss2/classifier_loss2/classifier_0_split -> loss2/classifier_loss2/classifier_0_split_0
I0306 15:53:12.474295   531 net.cpp:409] loss2/classifier_loss2/classifier_0_split -> loss2/classifier_loss2/classifier_0_split_1
I0306 15:53:12.474370   531 net.cpp:144] Setting up loss2/classifier_loss2/classifier_0_split
I0306 15:53:12.474383   531 net.cpp:151] Top shape: 16 3 (48)
I0306 15:53:12.474390   531 net.cpp:151] Top shape: 16 3 (48)
I0306 15:53:12.474395   531 net.cpp:159] Memory required for data: 805602888
I0306 15:53:12.474402   531 layer_factory.hpp:77] Creating layer loss2/loss
I0306 15:53:12.474422   531 net.cpp:94] Creating Layer loss2/loss
I0306 15:53:12.474431   531 net.cpp:435] loss2/loss <- loss2/classifier_loss2/classifier_0_split_0
I0306 15:53:12.474440   531 net.cpp:435] loss2/loss <- label_val-data_1_split_2
…
I0306 15:53:12.474750   531 net.cpp:144] Setting up loss2/top-1
I0306 15:53:12.474759   531 net.cpp:151] Top shape: (1)
I0306 15:53:12.474766   531 net.cpp:159] Memory required for data: 805602896
I0306 15:53:12.474771   531 layer_factory.hpp:77] Creating layer inception_4e/1x1
I0306 15:53:12.474790   531 net.cpp:94] Creating Layer inception_4e/1x1
I0306 15:53:12.474800   531 net.cpp:435] inception_4e/1x1 <- inception_4d/output_inception_4d/output_0_split_1
I0306 15:53:12.474815   531 net.cpp:409] inception_4e/1x1 -> inception_4e/1x1
I0306 15:53:12.476744   531 net.cpp:144] Setting up inception_4e/1x1
I0306 15:53:12.476797   531 net.cpp:151] Top shape: 16 256 14 14 (802816)
I0306 15:53:12.476809   531 net.cpp:159] Memory required for data: 808814160
I0306 15:53:12.476825   531 layer_factory.hpp:77] Creating layer inception_4e/relu_1x1
I0306 15:53:12.476846   531 net.cpp:94] Creating Layer inception_4e/relu_1x1
I0306 15:53:12.476858   531 net.cpp:435] inception_4e/relu_1x1 <- inception_4e/1x1
I0306 15:53:12.476871   531 net.cpp:396] inception_4e/relu_1x1 -> inception_4e/1x1 (in-place)
I0306 15:53:12.476891   531 net.cpp:144] Setting up inception_4e/relu_1x1
I0306 15:53:12.476903   531 net.cpp:151] Top shape: 16 256 14 14 (802816)
I0306 15:53:12.476912   531 net.cpp:159] Memory required for data: 812025424
I0306 15:53:12.476920   531 layer_factory.hpp:77] Creating layer inception_4e/3x3_reduce
I0306 15:53:12.476943   531 net.cpp:94] Creating Layer inception_4e/3x3_reduce
I0306 15:53:12.476955   531 net.cpp:435] inception_4e/3x3_reduce <- inception_4d/output_inception_4d/output_0_split_2
I0306 15:53:12.476975   531 net.cpp:409] inception_4e/3x3_reduce -> inception_4e/3x3_reduce
I0306 15:53:12.479328   531 net.cpp:144] Setting up inception_4e/3x3_reduce
I0306 15:53:12.479353   531 net.cpp:151] Top shape: 16 160 14 14 (501760)
I0306 15:53:12.479363   531 net.cpp:159] Memory required for data: 814032464
I0306 15:53:12.479377   531 layer_factory.hpp:77] Creating layer inception_4e/relu_3x3_reduce
I0306 15:53:12.479398   531 net.cpp:94] Creating Layer inception_4e/relu_3x3_reduce
I0306 15:53:12.479408   531 net.cpp:435] inception_4e/relu_3x3_reduce <- inception_4e/3x3_reduce
I0306 15:53:12.479423   531 net.cpp:396] inception_4e/relu_3x3_reduce -> inception_4e/3x3_reduce (in-place)
I0306 15:53:12.479439   531 net.cpp:144] Setting up inception_4e/relu_3x3_reduce
I0306 15:53:12.479456   531 net.cpp:151] Top shape: 16 160 14 14 (501760)
I0306 15:53:12.479465   531 net.cpp:159] Memory required for data: 816039504
I0306 15:53:12.479475   531 layer_factory.hpp:77] Creating layer inception_4e/3x3
I0306 15:53:12.479543   531 net.cpp:94] Creating Layer inception_4e/3x3
I0306 15:53:12.479570   531 net.cpp:435] inception_4e/3x3 <- inception_4e/3x3_reduce
I0306 15:53:12.479588   531 net.cpp:409] inception_4e/3x3 -> inception_4e/3x3
I0306 15:53:12.485738   531 net.cpp:144] Setting up inception_4e/3x3
I0306 15:53:12.485762   531 net.cpp:151] Top shape: 16 320 14 14 (1003520)
I0306 15:53:12.485771   531 net.cpp:159] Memory required for data: 820053584
I0306 15:53:12.485785   531 layer_factory.hpp:77] Creating layer inception_4e/relu_3x3
I0306 15:53:12.485808   531 net.cpp:94] Creating Layer inception_4e/relu_3x3
I0306 15:53:12.485821   531 net.cpp:435] inception_4e/relu_3x3 <- inception_4e/3x3
I0306 15:53:12.485839   531 net.cpp:396] inception_4e/relu_3x3 -> inception_4e/3x3 (in-place)
I0306 15:53:12.485858   531 net.cpp:144] Setting up inception_4e/relu_3x3
I0306 15:53:12.485872   531 net.cpp:151] Top shape: 16 320 14 14 (1003520)
I0306 15:53:12.485878   531 net.cpp:159] Memory required for data: 824067664
I0306 15:53:12.485888   531 layer_factory.hpp:77] Creating layer inception_4e/5x5_reduce
I0306 15:53:12.485904   531 net.cpp:94] Creating Layer inception_4e/5x5_reduce
I0306 15:53:12.485924   531 net.cpp:435] inception_4e/5x5_reduce <- inception_4d/output_inception_4d/output_0_split_3
I0306 15:53:12.485947   531 net.cpp:409] inception_4e/5x5_reduce -> inception_4e/5x5_reduce
I0306 15:53:12.486443   531 net.cpp:144] Setting up inception_4e/5x5_reduce
I0306 15:53:12.486464   531 net.cpp:151] Top shape: 16 32 14 14 (100352)
I0306 15:53:12.486469   531 net.cpp:159] Memory required for data: 824469072
I0306 15:53:12.486476   531 layer_factory.hpp:77] Creating layer inception_4e/relu_5x5_reduce
I0306 15:53:12.486483   531 net.cpp:94] Creating Layer inception_4e/relu_5x5_reduce
I0306 15:53:12.486488   531 net.cpp:435] inception_4e/relu_5x5_reduce <- inception_4e/5x5_reduce
I0306 15:53:12.486495   531 net.cpp:396] inception_4e/relu_5x5_reduce -> inception_4e/5x5_reduce (in-place)
I0306 15:53:12.486505   531 net.cpp:144] Setting up inception_4e/relu_5x5_reduce
I0306 15:53:12.486526   531 net.cpp:151] Top shape: 16 32 14 14 (100352)
I0306 15:53:12.486531   531 net.cpp:159] Memory required for data: 824870480
I0306 15:53:12.486533   531 layer_factory.hpp:77] Creating layer inception_4e/5x5
I0306 15:53:12.486547   531 net.cpp:94] Creating Layer inception_4e/5x5
I0306 15:53:12.486552   531 net.cpp:435] inception_4e/5x5 <- inception_4e/5x5_reduce
I0306 15:53:12.486558   531 net.cpp:409] inception_4e/5x5 -> inception_4e/5x5
I0306 15:53:12.487437   531 net.cpp:144] Setting up inception_4e/5x5
I0306 15:53:12.487449   531 net.cpp:151] Top shape: 16 128 14 14 (401408)
I0306 15:53:12.487453   531 net.cpp:159] Memory required for data: 826476112
I0306 15:53:12.487458   531 layer_factory.hpp:77] Creating layer inception_4e/relu_5x5
I0306 15:53:12.487464   531 net.cpp:94] Creating Layer inception_4e/relu_5x5
I0306 15:53:12.487468   531 net.cpp:435] inception_4e/relu_5x5 <- inception_4e/5x5
I0306 15:53:12.487476   531 net.cpp:396] inception_4e/relu_5x5 -> inception_4e/5x5 (in-place)
I0306 15:53:12.487484   531 net.cpp:144] Setting up inception_4e/relu_5x5
I0306 15:53:12.487489   531 net.cpp:151] Top shape: 16 128 14 14 (401408)
I0306 15:53:12.487498   531 net.cpp:159] Memory required for data: 828081744
I0306 15:53:12.487500   531 layer_factory.hpp:77] Creating layer inception_4e/pool
I0306 15:53:12.487507   531 net.cpp:94] Creating Layer inception_4e/pool
I0306 15:53:12.487511   531 net.cpp:435] inception_4e/pool <- inception_4d/output_inception_4d/output_0_split_4
I0306 15:53:12.487517   531 net.cpp:409] inception_4e/pool -> inception_4e/pool
I0306 15:53:12.487567   531 net.cpp:144] Setting up inception_4e/pool
I0306 15:53:12.487576   531 net.cpp:151] Top shape: 16 528 14 14 (1655808)
I0306 15:53:12.487578   531 net.cpp:159] Memory required for data: 834704976
I0306 15:53:12.487581   531 layer_factory.hpp:77] Creating layer inception_4e/pool_proj
I0306 15:53:12.487591   531 net.cpp:94] Creating Layer inception_4e/pool_proj
I0306 15:53:12.487596   531 net.cpp:435] inception_4e/pool_proj <- inception_4e/pool
I0306 15:53:12.487604   531 net.cpp:409] inception_4e/pool_proj -> inception_4e/pool_proj
I0306 15:53:12.488246   531 net.cpp:144] Setting up inception_4e/pool_proj
I0306 15:53:12.488256   531 net.cpp:151] Top shape: 16 128 14 14 (401408)
I0306 15:53:12.488260   531 net.cpp:159] Memory required for data: 836310608
I0306 15:53:12.488265   531 layer_factory.hpp:77] Creating layer inception_4e/relu_pool_proj
I0306 15:53:12.488271   531 net.cpp:94] Creating Layer inception_4e/relu_pool_proj
I0306 15:53:12.488276   531 net.cpp:435] inception_4e/relu_pool_proj <- inception_4e/pool_proj
I0306 15:53:12.488281   531 net.cpp:396] inception_4e/relu_pool_proj -> inception_4e/pool_proj (in-place)
I0306 15:53:12.488288   531 net.cpp:144] Setting up inception_4e/relu_pool_proj
I0306 15:53:12.488292   531 net.cpp:151] Top shape: 16 128 14 14 (401408)
I0306 15:53:12.488296   531 net.cpp:159] Memory required for data: 837916240
I0306 15:53:12.488299   531 layer_factory.hpp:77] Creating layer inception_4e/output
I0306 15:53:12.488308   531 net.cpp:94] Creating Layer inception_4e/output
I0306 15:53:12.488312   531 net.cpp:435] inception_4e/output <- inception_4e/1x1
I0306 15:53:12.488317   531 net.cpp:435] inception_4e/output <- inception_4e/3x3
I0306 15:53:12.488320   531 net.cpp:435] inception_4e/output <- inception_4e/5x5
I0306 15:53:12.488324   531 net.cpp:435] inception_4e/output <- inception_4e/pool_proj
I0306 15:53:12.488330   531 net.cpp:409] inception_4e/output -> inception_4e/output
I0306 15:53:12.488358   531 net.cpp:144] Setting up inception_4e/output
I0306 15:53:12.488365   531 net.cpp:151] Top shape: 16 832 14 14 (2609152)
I0306 15:53:12.488368   531 net.cpp:159] Memory required for data: 848352848
I0306 15:53:12.488373   531 layer_factory.hpp:77] Creating layer pool4/3x3_s2
I0306 15:53:12.488377   531 net.cpp:94] Creating Layer pool4/3x3_s2
I0306 15:53:12.488381   531 net.cpp:435] pool4/3x3_s2 <- inception_4e/output
I0306 15:53:12.488389   531 net.cpp:409] pool4/3x3_s2 -> pool4/3x3_s2
I0306 15:53:12.488442   531 net.cpp:144] Setting up pool4/3x3_s2
I0306 15:53:12.488449   531 net.cpp:151] Top shape: 16 832 7 7 (652288)
I0306 15:53:12.488452   531 net.cpp:159] Memory required for data: 850962000
I0306 15:53:12.488456   531 layer_factory.hpp:77] Creating layer pool4/3x3_s2_pool4/3x3_s2_0_split
I0306 15:53:12.488462   531 net.cpp:94] Creating Layer pool4/3x3_s2_pool4/3x3_s2_0_split
I0306 15:53:12.488466   531 net.cpp:435] pool4/3x3_s2_pool4/3x3_s2_0_split <- pool4/3x3_s2
I0306 15:53:12.488474   531 net.cpp:409] pool4/3x3_s2_pool4/3x3_s2_0_split -> pool4/3x3_s2_pool4/3x3_s2_0_split_0
I0306 15:53:12.488483   531 net.cpp:409] pool4/3x3_s2_pool4/3x3_s2_0_split -> pool4/3x3_s2_pool4/3x3_s2_0_split_1
I0306 15:53:12.488489   531 net.cpp:409] pool4/3x3_s2_pool4/3x3_s2_0_split -> pool4/3x3_s2_pool4/3x3_s2_0_split_2
I0306 15:53:12.488495   531 net.cpp:409] pool4/3x3_s2_pool4/3x3_s2_0_split -> pool4/3x3_s2_pool4/3x3_s2_0_split_3
I0306 15:53:12.488560   531 net.cpp:144] Setting up pool4/3x3_s2_pool4/3x3_s2_0_split
I0306 15:53:12.488567   531 net.cpp:151] Top shape: 16 832 7 7 (652288)
I0306 15:53:12.488571   531 net.cpp:151] Top shape: 16 832 7 7 (652288)
I0306 15:53:12.488576   531 net.cpp:151] Top shape: 16 832 7 7 (652288)
I0306 15:53:12.488580   531 net.cpp:151] Top shape: 16 832 7 7 (652288)
I0306 15:53:12.488584   531 net.cpp:159] Memory required for data: 861398608
I0306 15:53:12.488586   531 layer_factory.hpp:77] Creating layer inception_5a/1x1
I0306 15:53:12.488597   531 net.cpp:94] Creating Layer inception_5a/1x1
I0306 15:53:12.488601   531 net.cpp:435] inception_5a/1x1 <- pool4/3x3_s2_pool4/3x3_s2_0_split_0
I0306 15:53:12.488610   531 net.cpp:409] inception_5a/1x1 -> inception_5a/1x1
I0306 15:53:12.490805   531 net.cpp:144] Setting up inception_5a/1x1
I0306 15:53:12.490821   531 net.cpp:151] Top shape: 16 256 7 7 (200704)
I0306 15:53:12.490825   531 net.cpp:159] Memory required for data: 862201424
I0306 15:53:12.490833   531 layer_factory.hpp:77] Creating layer inception_5a/relu_1x1
I0306 15:53:12.490841   531 net.cpp:94] Creating Layer inception_5a/relu_1x1
I0306 15:53:12.490846   531 net.cpp:435] inception_5a/relu_1x1 <- inception_5a/1x1
I0306 15:53:12.490852   531 net.cpp:396] inception_5a/relu_1x1 -> inception_5a/1x1 (in-place)
I0306 15:53:12.490860   531 net.cpp:144] Setting up inception_5a/relu_1x1
I0306 15:53:12.490864   531 net.cpp:151] Top shape: 16 256 7 7 (200704)
I0306 15:53:12.490869   531 net.cpp:159] Memory required for data: 863004240
I0306 15:53:12.490871   531 layer_factory.hpp:77] Creating layer inception_5a/3x3_reduce
I0306 15:53:12.490885   531 net.cpp:94] Creating Layer inception_5a/3x3_reduce
I0306 15:53:12.490890   531 net.cpp:435] inception_5a/3x3_reduce <- pool4/3x3_s2_pool4/3x3_s2_0_split_1
I0306 15:53:12.490898   531 net.cpp:409] inception_5a/3x3_reduce -> inception_5a/3x3_reduce
I0306 15:53:12.492652   531 net.cpp:144] Setting up inception_5a/3x3_reduce
I0306 15:53:12.492668   531 net.cpp:151] Top shape: 16 160 7 7 (125440)
I0306 15:53:12.492672   531 net.cpp:159] Memory required for data: 863506000
I0306 15:53:12.492679   531 layer_factory.hpp:77] Creating layer inception_5a/relu_3x3_reduce
I0306 15:53:12.492686   531 net.cpp:94] Creating Layer inception_5a/relu_3x3_reduce
I0306 15:53:12.492691   531 net.cpp:435] inception_5a/relu_3x3_reduce <- inception_5a/3x3_reduce
I0306 15:53:12.492699   531 net.cpp:396] inception_5a/relu_3x3_reduce -> inception_5a/3x3_reduce (in-place)
I0306 15:53:12.492708   531 net.cpp:144] Setting up inception_5a/relu_3x3_reduce
I0306 15:53:12.492712   531 net.cpp:151] Top shape: 16 160 7 7 (125440)
I0306 15:53:12.492717   531 net.cpp:159] Memory required for data: 864007760
I0306 15:53:12.492719   531 layer_factory.hpp:77] Creating layer inception_5a/3x3
I0306 15:53:12.492729   531 net.cpp:94] Creating Layer inception_5a/3x3
I0306 15:53:12.492734   531 net.cpp:435] inception_5a/3x3 <- inception_5a/3x3_reduce
I0306 15:53:12.492743   531 net.cpp:409] inception_5a/3x3 -> inception_5a/3x3
I0306 15:53:12.496858   531 net.cpp:144] Setting up inception_5a/3x3
I0306 15:53:12.496889   531 net.cpp:151] Top shape: 16 320 7 7 (250880)
I0306 15:53:12.496894   531 net.cpp:159] Memory required for data: 865011280
I0306 15:53:12.496901   531 layer_factory.hpp:77] Creating layer inception_5a/relu_3x3
I0306 15:53:12.496918   531 net.cpp:94] Creating Layer inception_5a/relu_3x3
I0306 15:53:12.496923   531 net.cpp:435] inception_5a/relu_3x3 <- inception_5a/3x3
I0306 15:53:12.496929   531 net.cpp:396] inception_5a/relu_3x3 -> inception_5a/3x3 (in-place)
I0306 15:53:12.496937   531 net.cpp:144] Setting up inception_5a/relu_3x3
I0306 15:53:12.496942   531 net.cpp:151] Top shape: 16 320 7 7 (250880)
I0306 15:53:12.496945   531 net.cpp:159] Memory required for data: 866014800
I0306 15:53:12.496948   531 layer_factory.hpp:77] Creating layer inception_5a/5x5_reduce
I0306 15:53:12.496965   531 net.cpp:94] Creating Layer inception_5a/5x5_reduce
I0306 15:53:12.496970   531 net.cpp:435] inception_5a/5x5_reduce <- pool4/3x3_s2_pool4/3x3_s2_0_split_2
I0306 15:53:12.496978   531 net.cpp:409] inception_5a/5x5_reduce -> inception_5a/5x5_reduce
I0306 15:53:12.497450   531 net.cpp:144] Setting up inception_5a/5x5_reduce
I0306 15:53:12.497462   531 net.cpp:151] Top shape: 16 32 7 7 (25088)
I0306 15:53:12.497467   531 net.cpp:159] Memory required for data: 866115152
I0306 15:53:12.497473   531 layer_factory.hpp:77] Creating layer inception_5a/relu_5x5_reduce
I0306 15:53:12.497478   531 net.cpp:94] Creating Layer inception_5a/relu_5x5_reduce
I0306 15:53:12.497483   531 net.cpp:435] inception_5a/relu_5x5_reduce <- inception_5a/5x5_reduce
I0306 15:53:12.497490   531 net.cpp:396] inception_5a/relu_5x5_reduce -> inception_5a/5x5_reduce (in-place)
I0306 15:53:12.497498   531 net.cpp:144] Setting up inception_5a/relu_5x5_reduce
I0306 15:53:12.497503   531 net.cpp:151] Top shape: 16 32 7 7 (25088)
I0306 15:53:12.497505   531 net.cpp:159] Memory required for data: 866215504
I0306 15:53:12.497509   531 layer_factory.hpp:77] Creating layer inception_5a/5x5
I0306 15:53:12.497519   531 net.cpp:94] Creating Layer inception_5a/5x5
I0306 15:53:12.497522   531 net.cpp:435] inception_5a/5x5 <- inception_5a/5x5_reduce
I0306 15:53:12.497529   531 net.cpp:409] inception_5a/5x5 -> inception_5a/5x5
I0306 15:53:12.498380   531 net.cpp:144] Setting up inception_5a/5x5
I0306 15:53:12.498390   531 net.cpp:151] Top shape: 16 128 7 7 (100352)
I0306 15:53:12.498394   531 net.cpp:159] Memory required for data: 866616912
I0306 15:53:12.498399   531 layer_factory.hpp:77] Creating layer inception_5a/relu_5x5
I0306 15:53:12.498405   531 net.cpp:94] Creating Layer inception_5a/relu_5x5
I0306 15:53:12.498409   531 net.cpp:435] inception_5a/relu_5x5 <- inception_5a/5x5
I0306 15:53:12.498416   531 net.cpp:396] inception_5a/relu_5x5 -> inception_5a/5x5 (in-place)
I0306 15:53:12.498425   531 net.cpp:144] Setting up inception_5a/relu_5x5
I0306 15:53:12.498428   531 net.cpp:151] Top shape: 16 128 7 7 (100352)
I0306 15:53:12.498431   531 net.cpp:159] Memory required for data: 867018320
I0306 15:53:12.498435   531 layer_factory.hpp:77] Creating layer inception_5a/pool
I0306 15:53:12.498440   531 net.cpp:94] Creating Layer inception_5a/pool
I0306 15:53:12.498445   531 net.cpp:435] inception_5a/pool <- pool4/3x3_s2_pool4/3x3_s2_0_split_3
I0306 15:53:12.498452   531 net.cpp:409] inception_5a/pool -> inception_5a/pool
I0306 15:53:12.498518   531 net.cpp:144] Setting up inception_5a/pool
I0306 15:53:12.498526   531 net.cpp:151] Top shape: 16 832 7 7 (652288)
I0306 15:53:12.498529   531 net.cpp:159] Memory required for data: 869627472
I0306 15:53:12.498533   531 layer_factory.hpp:77] Creating layer inception_5a/pool_proj
I0306 15:53:12.498541   531 net.cpp:94] Creating Layer inception_5a/pool_proj
I0306 15:53:12.498545   531 net.cpp:435] inception_5a/pool_proj <- inception_5a/pool
I0306 15:53:12.498551   531 net.cpp:409] inception_5a/pool_proj -> inception_5a/pool_proj
I0306 15:53:12.500102   531 net.cpp:144] Setting up inception_5a/pool_proj
I0306 15:53:12.500118   531 net.cpp:151] Top shape: 16 128 7 7 (100352)
I0306 15:53:12.500121   531 net.cpp:159] Memory required for data: 870028880
I0306 15:53:12.500152   531 layer_factory.hpp:77] Creating layer inception_5a/relu_pool_proj
I0306 15:53:12.500164   531 net.cpp:94] Creating Layer inception_5a/relu_pool_proj
I0306 15:53:12.500169   531 net.cpp:435] inception_5a/relu_pool_proj <- inception_5a/pool_proj
I0306 15:53:12.500174   531 net.cpp:396] inception_5a/relu_pool_proj -> inception_5a/pool_proj (in-place)
I0306 15:53:12.500183   531 net.cpp:144] Setting up inception_5a/relu_pool_proj
I0306 15:53:12.500187   531 net.cpp:151] Top shape: 16 128 7 7 (100352)
I0306 15:53:12.500192   531 net.cpp:159] Memory required for data: 870430288
I0306 15:53:12.500195   531 layer_factory.hpp:77] Creating layer inception_5a/output
I0306 15:53:12.500203   531 net.cpp:94] Creating Layer inception_5a/output
I0306 15:53:12.500207   531 net.cpp:435] inception_5a/output <- inception_5a/1x1
I0306 15:53:12.500212   531 net.cpp:435] inception_5a/output <- inception_5a/3x3
I0306 15:53:12.500216   531 net.cpp:435] inception_5a/output <- inception_5a/5x5
I0306 15:53:12.500221   531 net.cpp:435] inception_5a/output <- inception_5a/pool_proj
I0306 15:53:12.500226   531 net.cpp:409] inception_5a/output -> inception_5a/output
I0306 15:53:12.500255   531 net.cpp:144] Setting up inception_5a/output
I0306 15:53:12.500262   531 net.cpp:151] Top shape: 16 832 7 7 (652288)
I0306 15:53:12.500265   531 net.cpp:159] Memory required for data: 873039440
I0306 15:53:12.500268   531 layer_factory.hpp:77] Creating layer inception_5a/output_inception_5a/output_0_split
I0306 15:53:12.500275   531 net.cpp:94] Creating Layer inception_5a/output_inception_5a/output_0_split
I0306 15:53:12.500278   531 net.cpp:435] inception_5a/output_inception_5a/output_0_split <- inception_5a/output
I0306 15:53:12.500286   531 net.cpp:409] inception_5a/output_inception_5a/output_0_split -> inception_5a/output_inception_5a/output_0_split_0
I0306 15:53:12.500295   531 net.cpp:409] inception_5a/output_inception_5a/output_0_split -> inception_5a/output_inception_5a/output_0_split_1
I0306 15:53:12.500301   531 net.cpp:409] inception_5a/output_inception_5a/output_0_split -> inception_5a/output_inception_5a/output_0_split_2
I0306 15:53:12.500311   531 net.cpp:409] inception_5a/output_inception_5a/output_0_split -> inception_5a/output_inception_5a/output_0_split_3
I0306 15:53:12.500366   531 net.cpp:144] Setting up inception_5a/output_inception_5a/output_0_split
I0306 15:53:12.500372   531 net.cpp:151] Top shape: 16 832 7 7 (652288)
I0306 15:53:12.500377   531 net.cpp:151] Top shape: 16 832 7 7 (652288)
I0306 15:53:12.500381   531 net.cpp:151] Top shape: 16 832 7 7 (652288)
I0306 15:53:12.500385   531 net.cpp:151] Top shape: 16 832 7 7 (652288)
I0306 15:53:12.500388   531 net.cpp:159] Memory required for data: 883476048
I0306 15:53:12.500391   531 layer_factory.hpp:77] Creating layer inception_5b/1x1
I0306 15:53:12.500406   531 net.cpp:94] Creating Layer inception_5b/1x1
I0306 15:53:12.500411   531 net.cpp:435] inception_5b/1x1 <- inception_5a/output_inception_5a/output_0_split_0
I0306 15:53:12.500419   531 net.cpp:409] inception_5b/1x1 -> inception_5b/1x1
I0306 15:53:12.503295   531 net.cpp:144] Setting up inception_5b/1x1
I0306 15:53:12.503311   531 net.cpp:151] Top shape: 16 384 7 7 (301056)
I0306 15:53:12.503315   531 net.cpp:159] Memory required for data: 884680272
I0306 15:53:12.503322   531 layer_factory.hpp:77] Creating layer inception_5b/relu_1x1
I0306 15:53:12.503331   531 net.cpp:94] Creating Layer inception_5b/relu_1x1
I0306 15:53:12.503336   531 net.cpp:435] inception_5b/relu_1x1 <- inception_5b/1x1
I0306 15:53:12.503342   531 net.cpp:396] inception_5b/relu_1x1 -> inception_5b/1x1 (in-place)
I0306 15:53:12.503350   531 net.cpp:144] Setting up inception_5b/relu_1x1
I0306 15:53:12.503355   531 net.cpp:151] Top shape: 16 384 7 7 (301056)
I0306 15:53:12.503358   531 net.cpp:159] Memory required for data: 885884496
I0306 15:53:12.503361   531 layer_factory.hpp:77] Creating layer inception_5b/3x3_reduce
I0306 15:53:12.503372   531 net.cpp:94] Creating Layer inception_5b/3x3_reduce
I0306 15:53:12.503403   531 net.cpp:435] inception_5b/3x3_reduce <- inception_5a/output_inception_5a/output_0_split_1
I0306 15:53:12.503413   531 net.cpp:409] inception_5b/3x3_reduce -> inception_5b/3x3_reduce
I0306 15:53:12.505223   531 net.cpp:144] Setting up inception_5b/3x3_reduce
I0306 15:53:12.505239   531 net.cpp:151] Top shape: 16 192 7 7 (150528)
I0306 15:53:12.505242   531 net.cpp:159] Memory required for data: 886486608
I0306 15:53:12.505249   531 layer_factory.hpp:77] Creating layer inception_5b/relu_3x3_reduce
I0306 15:53:12.505256   531 net.cpp:94] Creating Layer inception_5b/relu_3x3_reduce
I0306 15:53:12.505260   531 net.cpp:435] inception_5b/relu_3x3_reduce <- inception_5b/3x3_reduce
I0306 15:53:12.505268   531 net.cpp:396] inception_5b/relu_3x3_reduce -> inception_5b/3x3_reduce (in-place)
I0306 15:53:12.505277   531 net.cpp:144] Setting up inception_5b/relu_3x3_reduce
I0306 15:53:12.505282   531 net.cpp:151] Top shape: 16 192 7 7 (150528)
I0306 15:53:12.505285   531 net.cpp:159] Memory required for data: 887088720
I0306 15:53:12.505288   531 layer_factory.hpp:77] Creating layer inception_5b/3x3
I0306 15:53:12.505298   531 net.cpp:94] Creating Layer inception_5b/3x3
I0306 15:53:12.505302   531 net.cpp:435] inception_5b/3x3 <- inception_5b/3x3_reduce
I0306 15:53:12.505308   531 net.cpp:409] inception_5b/3x3 -> inception_5b/3x3
I0306 15:53:12.510926   531 net.cpp:144] Setting up inception_5b/3x3
I0306 15:53:12.510943   531 net.cpp:151] Top shape: 16 384 7 7 (301056)
I0306 15:53:12.510947   531 net.cpp:159] Memory required for data: 888292944
I0306 15:53:12.510954   531 layer_factory.hpp:77] Creating layer inception_5b/relu_3x3
I0306 15:53:12.510962   531 net.cpp:94] Creating Layer inception_5b/relu_3x3
I0306 15:53:12.510967   531 net.cpp:435] inception_5b/relu_3x3 <- inception_5b/3x3
I0306 15:53:12.510974   531 net.cpp:396] inception_5b/relu_3x3 -> inception_5b/3x3 (in-place)
I0306 15:53:12.510984   531 net.cpp:144] Setting up inception_5b/relu_3x3
I0306 15:53:12.510993   531 net.cpp:151] Top shape: 16 384 7 7 (301056)
I0306 15:53:12.510996   531 net.cpp:159] Memory required for data: 889497168
I0306 15:53:12.511005   531 layer_factory.hpp:77] Creating layer inception_5b/5x5_reduce
I0306 15:53:12.511015   531 net.cpp:94] Creating Layer inception_5b/5x5_reduce
I0306 15:53:12.511020   531 net.cpp:435] inception_5b/5x5_reduce <- inception_5a/output_inception_5a/output_0_split_2
I0306 15:53:12.511029   531 net.cpp:409] inception_5b/5x5_reduce -> inception_5b/5x5_reduce
I0306 15:53:12.511570   531 net.cpp:144] Setting up inception_5b/5x5_reduce
I0306 15:53:12.511584   531 net.cpp:151] Top shape: 16 48 7 7 (37632)
I0306 15:53:12.511586   531 net.cpp:159] Memory required for data: 889647696
I0306 15:53:12.511593   531 layer_factory.hpp:77] Creating layer inception_5b/relu_5x5_reduce
I0306 15:53:12.511600   531 net.cpp:94] Creating Layer inception_5b/relu_5x5_reduce
I0306 15:53:12.511605   531 net.cpp:435] inception_5b/relu_5x5_reduce <- inception_5b/5x5_reduce
I0306 15:53:12.511610   531 net.cpp:396] inception_5b/relu_5x5_reduce -> inception_5b/5x5_reduce (in-place)
I0306 15:53:12.511617   531 net.cpp:144] Setting up inception_5b/relu_5x5_reduce
I0306 15:53:12.511621   531 net.cpp:151] Top shape: 16 48 7 7 (37632)
I0306 15:53:12.511624   531 net.cpp:159] Memory required for data: 889798224
I0306 15:53:12.511628   531 layer_factory.hpp:77] Creating layer inception_5b/5x5
I0306 15:53:12.511642   531 net.cpp:94] Creating Layer inception_5b/5x5
I0306 15:53:12.511646   531 net.cpp:435] inception_5b/5x5 <- inception_5b/5x5_reduce
I0306 15:53:12.511652   531 net.cpp:409] inception_5b/5x5 -> inception_5b/5x5
I0306 15:53:12.512838   531 net.cpp:144] Setting up inception_5b/5x5
I0306 15:53:12.512848   531 net.cpp:151] Top shape: 16 128 7 7 (100352)
I0306 15:53:12.512852   531 net.cpp:159] Memory required for data: 890199632
I0306 15:53:12.512857   531 layer_factory.hpp:77] Creating layer inception_5b/relu_5x5
I0306 15:53:12.512866   531 net.cpp:94] Creating Layer inception_5b/relu_5x5
I0306 15:53:12.512871   531 net.cpp:435] inception_5b/relu_5x5 <- inception_5b/5x5
I0306 15:53:12.512892   531 net.cpp:396] inception_5b/relu_5x5 -> inception_5b/5x5 (in-place)
I0306 15:53:12.512900   531 net.cpp:144] Setting up inception_5b/relu_5x5
I0306 15:53:12.512905   531 net.cpp:151] Top shape: 16 128 7 7 (100352)
I0306 15:53:12.512908   531 net.cpp:159] Memory required for data: 890601040
I0306 15:53:12.512912   531 layer_factory.hpp:77] Creating layer inception_5b/pool
I0306 15:53:12.512921   531 net.cpp:94] Creating Layer inception_5b/pool
I0306 15:53:12.512925   531 net.cpp:435] inception_5b/pool <- inception_5a/output_inception_5a/output_0_split_3
I0306 15:53:12.512931   531 net.cpp:409] inception_5b/pool -> inception_5b/pool
I0306 15:53:12.512979   531 net.cpp:144] Setting up inception_5b/pool
I0306 15:53:12.512985   531 net.cpp:151] Top shape: 16 832 7 7 (652288)
I0306 15:53:12.512989   531 net.cpp:159] Memory required for data: 893210192
I0306 15:53:12.512992   531 layer_factory.hpp:77] Creating layer inception_5b/pool_proj
I0306 15:53:12.513002   531 net.cpp:94] Creating Layer inception_5b/pool_proj
I0306 15:53:12.513006   531 net.cpp:435] inception_5b/pool_proj <- inception_5b/pool
I0306 15:53:12.513015   531 net.cpp:409] inception_5b/pool_proj -> inception_5b/pool_proj
I0306 15:53:12.514575   531 net.cpp:144] Setting up inception_5b/pool_proj
I0306 15:53:12.514590   531 net.cpp:151] Top shape: 16 128 7 7 (100352)
I0306 15:53:12.514593   531 net.cpp:159] Memory required for data: 893611600
I0306 15:53:12.514600   531 layer_factory.hpp:77] Creating layer inception_5b/relu_pool_proj
I0306 15:53:12.514606   531 net.cpp:94] Creating Layer inception_5b/relu_pool_proj
I0306 15:53:12.514611   531 net.cpp:435] inception_5b/relu_pool_proj <- inception_5b/pool_proj
I0306 15:53:12.514616   531 net.cpp:396] inception_5b/relu_pool_proj -> inception_5b/pool_proj (in-place)
I0306 15:53:12.514624   531 net.cpp:144] Setting up inception_5b/relu_pool_proj
I0306 15:53:12.514629   531 net.cpp:151] Top shape: 16 128 7 7 (100352)
I0306 15:53:12.514632   531 net.cpp:159] Memory required for data: 894013008
I0306 15:53:12.514636   531 layer_factory.hpp:77] Creating layer inception_5b/output
I0306 15:53:12.514643   531 net.cpp:94] Creating Layer inception_5b/output
I0306 15:53:12.514647   531 net.cpp:435] inception_5b/output <- inception_5b/1x1
I0306 15:53:12.514652   531 net.cpp:435] inception_5b/output <- inception_5b/3x3
I0306 15:53:12.514657   531 net.cpp:435] inception_5b/output <- inception_5b/5x5
I0306 15:53:12.514660   531 net.cpp:435] inception_5b/output <- inception_5b/pool_proj
I0306 15:53:12.514665   531 net.cpp:409] inception_5b/output -> inception_5b/output
I0306 15:53:12.514693   531 net.cpp:144] Setting up inception_5b/output
I0306 15:53:12.514700   531 net.cpp:151] Top shape: 16 1024 7 7 (802816)
I0306 15:53:12.514703   531 net.cpp:159] Memory required for data: 897224272
I0306 15:53:12.514706   531 layer_factory.hpp:77] Creating layer pool5/7x7_s1
I0306 15:53:12.514712   531 net.cpp:94] Creating Layer pool5/7x7_s1
I0306 15:53:12.514716   531 net.cpp:435] pool5/7x7_s1 <- inception_5b/output
I0306 15:53:12.514725   531 net.cpp:409] pool5/7x7_s1 -> pool5/7x7_s1
I0306 15:53:12.514751   531 net.cpp:144] Setting up pool5/7x7_s1
I0306 15:53:12.514757   531 net.cpp:151] Top shape: 16 1024 1 1 (16384)
I0306 15:53:12.514761   531 net.cpp:159] Memory required for data: 897289808
I0306 15:53:12.514765   531 layer_factory.hpp:77] Creating layer pool5/drop_7x7_s1
I0306 15:53:12.514771   531 net.cpp:94] Creating Layer pool5/drop_7x7_s1
I0306 15:53:12.514775   531 net.cpp:435] pool5/drop_7x7_s1 <- pool5/7x7_s1
I0306 15:53:12.514781   531 net.cpp:396] pool5/drop_7x7_s1 -> pool5/7x7_s1 (in-place)
I0306 15:53:12.514804   531 net.cpp:144] Setting up pool5/drop_7x7_s1
I0306 15:53:12.514811   531 net.cpp:151] Top shape: 16 1024 1 1 (16384)
I0306 15:53:12.514814   531 net.cpp:159] Memory required for data: 897355344
I0306 15:53:12.514817   531 layer_factory.hpp:77] Creating layer loss3/classifier
I0306 15:53:12.514824   531 net.cpp:94] Creating Layer loss3/classifier
I0306 15:53:12.514842   531 net.cpp:435] loss3/classifier <- pool5/7x7_s1
I0306 15:53:12.514853   531 net.cpp:409] loss3/classifier -> loss3/classifier
I0306 15:53:12.514976   531 net.cpp:144] Setting up loss3/classifier
I0306 15:53:12.514982   531 net.cpp:151] Top shape: 16 3 (48)
I0306 15:53:12.514986   531 net.cpp:159] Memory required for data: 897355536
I0306 15:53:12.514991   531 layer_factory.hpp:77] Creating layer loss3/classifier_loss3/classifier_0_split
I0306 15:53:12.515000   531 net.cpp:94] Creating Layer loss3/classifier_loss3/classifier_0_split
I0306 15:53:12.515004   531 net.cpp:435] loss3/classifier_loss3/classifier_0_split <- loss3/classifier
I0306 15:53:12.515009   531 net.cpp:409] loss3/classifier_loss3/classifier_0_split -> loss3/classifier_loss3/classifier_0_split_0
I0306 15:53:12.515017   531 net.cpp:409] loss3/classifier_loss3/classifier_0_split -> loss3/classifier_loss3/classifier_0_split_1
I0306 15:53:12.515056   531 net.cpp:144] Setting up loss3/classifier_loss3/classifier_0_split
I0306 15:53:12.515081   531 net.cpp:151] Top shape: 16 3 (48)
I0306 15:53:12.515086   531 net.cpp:151] Top shape: 16 3 (48)
I0306 15:53:12.515089   531 net.cpp:159] Memory required for data: 897355920
I0306 15:53:12.515092   531 layer_factory.hpp:77] Creating layer loss3/loss
I0306 15:53:12.515100   531 net.cpp:94] Creating Layer loss3/loss
I0306 15:53:12.515103   531 net.cpp:435] loss3/loss <- loss3/classifier_loss3/classifier_0_split_0
I0306 15:53:12.515110   531 net.cpp:435] loss3/loss <- label_val-data_1_split_4
…
